12012016run/12012016run2007data/5levelData/nami/weights.npy (npy, 488 bytes, 1 tensors)

array f8 [51]
0.04947191720573188 0.04898464518006531 0.10670619517932013 -0.19115827778489 -0.015911870313659402 0.11419124935427456 0.1161721959188047 -0.37867058188539854
-0.4347578770418606 0.021540056941616554 0.13289186480440454 0.1293865676754181 -1.8529458261636882 -0.9019152771245819 -0.011232456003575857 0.17122353067754242
0.17233866692067018 -0.28089597220783846 -0.09151921897000631 0.0163966324324793 -1.6321497206966074 -1.6182902216663064 2.625016148093584 -0.21080715475978543
-0.06316092011102255 -0.38800269245017127 -0.39511869650241177 -0.2226911476383033 -0.6491681484816436 -0.10141920376322366 0.0329628965155132 0.03564909793606726
-0.5309138154820817 0.0015833998590672124 0.04908441836824226 -0.2386254423085612 -0.23824699050524126 -2.925616936518252 0.0576733082584896 -0.01979089621868157
-4.883942684997664 4.906761524494219 -0.016071787826047988 0.04861589680404774 -1.6702386502421267 1.5047880576170574 1.4819086267930885 -2.313487352308763
2.002237974865317 1.6808968900650472 2.775893326564509
00000000: c425 f014 6254 a93f 43ed 1bf2 8314 a93f
00000010: d965 93e2 1851 bb3f 830f b9db df77 c8bf
00000020: 0921 768a 334b 90bf 254b 7741 a33b bd3f
00000030: 52ff 2c06 76bd bd3f c7ec 4989 233c d8bf
00000040: fdae e4b3 12d3 dbbf e50e 79c0 980e 963f
00000050: b5a3 9ec2 9902 c13f 0393 5a32 bd8f c03f
00000060: b61f ca85 aaa5 fdbf 5169 606d 7ddc ecbf
00000070: dc4f 83b9 0a01 87bf c668 4814 a7ea c53f
00000080: 9258 2185 310f c63f 9a7d 8d19 33fa d1bf
00000090: f47f 6eb4 cd6d b7bf 3185 3f60 47ca 903f
000000a0: 5414 8906 491d fabf dfe4 9749 84e4 f9bf
000000b0: 4c45 5c77 0800 0540 2161 ba95 bafb cabf
000000c0: ad19 4366 502b b0bf f256 b53e 09d5 d8bf
000000d0: 4706 e1ed 9f49 d9bf 578c 1bbe 2481 ccbf
000000e0: 4aac ea47 fcc5 e4bf a872 59e3 9bf6 b9bf
000000f0: aff7 0745 83e0 a03f dbdc 883b 9940 a23f
00000100: 0faf 4ff8 3efd e0bf 60a6 1da7 42f1 593f
00000110: 2c02 45c7 9721 a93f 20ba 5a4b 478b cebf
00000120: 5593 4b9c e07e cebf bec1 37da a967 07c0
00000130: b009 a519 5b87 ad3f 9f31 1290 1044 94bf
00000140: e169 6e45 2889 13c0 25e5 d317 86a0 1340
00000150: d98d 676c 1f75 90bf fc9d adcd 2ee4 a83f
00000160: c2e1 b429 4cb9 fabf a806 6ea4 9c13 f83f
00000170: 0dc9 fbd1 e5b5 f73f 9201 2fa8 0582 02c0
00000180: b1d8 e657 9504 0040 9470 2c23 f4e4 fa3f
00000190: d53b 768f 0735 0640
