12012016run2008data/18levelData/nami/weights.npy (npy, 488 bytes, 1 tensors)

array f8 [51]
0	0x3f378ae3ebbf285b	0.0003592306563829966
1	0x3fabcb176e3b58db	0.054283840375932
2	0x3fa68d51a8b29686	0.04404692825600613
3	0x3fc39162b704f2dc	0.15287431656351813
4	0xbf3ba4a1380f8fa2	-0.00042180000315127965
5	0x3fa0748ea88e0e00	0.03213926131777711
6	0x3fc2567054df664c	0.14326290268108932
7	0x3fc2338b0e6d75f9	0.14219797329398867
8	0x400dadbfb76d2701	3.709838326471868
9	0xbfa9231085f3034d	-0.049095646239499226
10	0xbf7b32dd6da1cdc6	-0.006640305475332514
11	0x3fd60991e5dcacc8	0.3443341011759
12	0x3fd03a048eff7660	0.2535411259139888
13	0x3fa05f94741fca21	0.03197921674281568
14	0x3f80936fe1d43f5e	0.008093713835961299
15	0x3faf7312f89e6036	0.06142482075591753
16	0x3fb9e97883949f4f	0.10121873104492106
17	0x3fbacd021b723476	0.1046906773573982
18	0xbfeac1c842eb8f17	-0.8361550623926374
19	0xbfb64d22f378d068	-0.08711451000346104
20	0xbfd9866587234f7b	-0.3988279170709956
21	0xbff3fb9f47bc4937	-1.2489311983268416
22	0xbff3441ffc05ef57	-1.2041320652633283
23	0xbfff55da05cd5919	-1.9584598757406353
24	0x3fdf8c82fc37a995	0.49295115118607075
25	0xbfaa1f5a6303da17	-0.05102045496635215
26	0x3fb3eea8a56567e0	0.07786039388648147
27	0x3fa58b95b30c3674	0.04208057222977582
28	0xbfde061db7f82995	-0.46912329641113476
29	0x3fb509d3dd1bdcfa	0.08218120716252378
30	0x3f91173e714336aa	0.016690231001851664
31	0xbfa1f8cb9844eb13	-0.035101282441664015
32	0xbf959805945c1b5a	-0.021087729625857456
33	0xbfb5d4bbd531396e	-0.08527730898751937
34	0xbf95f7a4e758f579	-0.021452499981241744
35	0xbfb96840524e688e	-0.09924699792319044
36	0xbfd7bd0ac93d7100	-0.37091321613640105
37	0xbfd736de36a18e25	-0.36272387824121416
38	0xbfcb21f22fe035d6	-0.21197345102011295
39	0x3fc046b8f6a90ba5	0.12715827983819597
40	0x400462f3154cb1e8	2.5483152069120827
41	0x3ffc3051bbb430d4	1.761796696871035
42	0xc00137a5f1b885fe	-2.152171982234676
43	0x3fa2cd9c4e9fcb38	0.03672493419425965
44	0x3ffa8fb928b94855	1.660088690831363
45	0x3fd5438f0882ab89	0.332248457251517
46	0x400393fd2c5f72b8	2.4472602335575537
47	0x40023ed18855b090	2.2806730891371174
48	0x4020b9b0d0a4e47e	8.362677116516576
49	0x3fc237b19c660ab3	0.14232463966989925
50	0xbfbd367516eeb2a4	-0.11411220369218228
