weights.npy (npy, 1048 bytes, 1 tensors)

array f8 [121]
00000000: ba25 5dad ea5d c6bf 6e27 f742 8481 e33f
00000010: d09c d1c4 e3ca 2740 68b9 6e8c 1e1b 00c0
00000020: 6dfa 5ebb 95ac 0240 241f f11c 9ad4 0bc0
00000030: 024d f82e 4d75 0bc0 d3eb 9b7b 1098 e23f
00000040: fe8b c587 59bc b8bf b728 561b e174 2840
00000050: 938e 1e93 0d5d 2a40 c60d 5ca1 a111 debf
00000060: e896 919b 5b39 10c0 0ff1 42d7 cba5 13c0
00000070: 2506 7525 8c08 4040 14ba 0eb7 1939 b3bf
00000080: 1c78 12b7 d4e1 de3f 2021 3e73 028d 2e40
00000090: 29f7 9ead 23fc 3a40 bd02 2e5e 3531 1cc0
000000a0: 8e13 1bca 4dbd 14c0 88b6 2b0c e631 ecbf
000000b0: 5347 d591 f7a7 1cc0 1fa4 ff3b 9364 e63f
000000c0: 568a 2e68 a3ac c33f c084 ca6d 439f 29c0
000000d0: faf4 4a13 56a2 20c0 e707 c7e2 6443 06c0
000000e0: 1217 dbf9 2905 1540 bc3b c6e6 6f2f fbbf
000000f0: 451e 2137 848e 17c0 a1d5 425a 5efd c93f
00000100: ab51 bb14 a075 d33f 3dfd f6ca 7d41 20c0
00000110: a6ae fd58 3c74 2140 5dad c086 8284 0040
00000120: f261 8f0b c031 1140 3109 2ff7 17ae 10c0
00000130: e5ea 8716 943a 35c0 26a0 f941 43e4 fe3f
00000140: 18bf e999 7840 e43f 8e1e 3d0f 3452 2640
00000150: 0abc b44f 23be 2340 fa3c 1ef0 2cd7 f43f
00000160: e903 7865 2288 0fc0 b469 8df9 dc3b 0540
00000170: 1466 6be7 3898 1d40 01c5 5d29 5619 c9bf
00000180: 2642 7a41 5076 aabf dc08 4e9a b8c5 25c0
00000190: 8072 5dfb d662 39c0 9a98 c591 d264 0d40
000001a0: 3fa4 53cd dc73 1640 f646 1a74 af4f d93f
000001b0: 7400 e76d d3f9 ee3f 3f56 7819 705d cebf
000001c0: d354 5679 1758 ef3f d1c8 0c07 f57a f7bf
000001d0: b46d 2df2 9e81 fd3f 55f9 69db c8f9 0740
000001e0: b645 8817 bddd e4bf e79c fddf 3873 09c0
000001f0: 539c f320 58ce 1640 76f3 d5a1 5b4c fa3f
00000200: a783 7ece 6245 c9bf 9eb2 0b17 e9bb 36c0
00000210: a15f e908 6e67 4c40 0301 23bd a685 f33f
00000220: cee0 26f9 144d a9bf 1192 798b 4fb0 2640
00000230: 3070 8d1d a78f 3540 bfa6 6c7a 430f a9bf
00000240: 1d3d 5091 b242 ab3f 32cc 31df 988f e33f
00000250: 5fd5 9462 4c18 3b40 40a5 5f9b fae4 c63f
00000260: 5a81 f892 1659 833f dd3a 203f f37e 1cc0
00000270: 5f79 d2e5 81ca 1ac0 5510 fa6e c765 b93f
00000280: 0479 4ed1 957a aebf 0920 edc0 2b11 f63f
00000290: 77ca 5ca6 a4a3 4e40 ff0b 3221 07ab c73f
000002a0: f96c d9a5 385f 0ec0 1bc3 e0b3 65cd 0140
000002b0: 5f04 daa0 82f7 1f40 418d f515 008d ad3f
000002c0: adf5 94c3 0c9e f13f bff5 2998 c48c f83f
000002d0: 7386 a425 fbc2 3040 ccb4 d243 3209 bdbf
000002e0: 384f 02c4 11aa 30c0 87bf 551d c654 3cc0
000002f0: b18e 8437 47b4 1040 e20f f08b c37b 12c0
00000300: 3669 15d2 d162 2340 efd9 26a7 b038 11c0
00000310: 3da1 7013 98f4 4240 19cf d909 0c96 b7bf
00000320: 778a eb2c 8e4d 0fc0 24ef b525 ef29 c03f
00000330: 6ed5 20c9 09fd 3540 18a2 15c7 cf67 f1bf
00000340: a44b b469 d567 24c0 492f 300c dc7f 4fc0
00000350: 10a0 cc5d 9374 0440 953a 98f0 7f8a 2040
00000360: 9891 2595 6a71 2dc0 e4dd f313 0b2e 0240
00000370: 4b22 c682 2951 22c0 84f4 6728 71b9 e3bf
00000380: 37a4 fa43 5439 2c40 4801 8fa5 829d 13c0
00000390: d37d 1bb5 f05e 31c0 5a8b 354f 322e 2cc0
000003a0: 1d94 a9b9 cb84 43c0 54a6 cae4 a055 25c0
000003b0: 0bbb 4903 ed4a 50c0 971c 29f0 3931 1e40
000003c0: 3ba6 3fcd 5d80 6940
-0.17474111046821666 0.6095601375502449 11.896268988215894 -2.0132418605127675 2.334269965969091 -3.4788095723232733 -3.4322761220479387 0.5810625471343606
-0.09662398876893971 12.228279928462468 13.181744191627592 -0.46982613332530965 -4.05601351810558 -4.9119104036910946 32.06677692617476 -0.07509003371408368
0.48253362539424116 15.27540931828895 26.984919406232766 -7.048055144842405 -5.184867055800067 -0.8810911405286825 -7.1640303408074315 0.6997772380683535
0.1537060030651271 -12.811061316462997 -8.31706295289995 -2.782907268237057 5.255042938229751 -1.6990813269255645 -5.8891762365306635 0.20304469496992986
0.30405427956182035 -8.127912848138857 8.727022915808742 2.06470208430771 4.298584156633739 -4.170013296361774 -21.228822143729207 1.930728204455599
0.6328700071444215 11.16055343266569 9.87136315423233 1.302533090554617 -3.94147185585506 2.6542300697594445 7.39865457146654 -0.19608571071470496
-0.051683910363071114 -10.886174032235822 -25.3860928633826 3.6742297542978806 5.613146980505063 0.3954886087241073 0.9679963251619612 -0.23722649806647841
0.9795033807628449 -1.4675188327205897 1.8441457233483165 2.996965135737961 -0.6520677051177504 -3.1812608241340175 5.701508059376539 1.6436420747479281
-0.19742999155735427 -22.73402542148198 56.808045495941094 1.2201297176507644 -0.04941621343044887 11.344356878843458 21.56114372923929 -0.0489445769256469
0.05324323676915752 0.6112789496677407 27.094915543876933 0.1788628824863654 0.009447265968504471 -7.123974787084731 -6.697761145564384 0.0992092748584253
-0.05952900104533579 1.3791921173269677 61.278462214763685 0.18490685578225904 -3.796494765947156 2.22529163865728 7.991709245020586 0.05771637218529203
1.1010863914410536 1.5343671745207386 16.76164469973305 -0.1134215751250906 -16.66433358246215 -28.33114798873387 4.1760529207855805 -4.620863138701653
9.693007054437299 -4.305361377474113 37.910890989298856 -0.0921332859086842 -3.9128688344365474 0.12627972928373155 21.988430567279856 -1.0878446366060697
-10.202800086268162 -62.99890282013673 2.5569217041083974 8.27050735338461 -14.721516285739924 2.272482066993449 -9.15851982754352 -0.6163869656735561
14.111971020074732 -4.903818690160115 -17.370860404216568 -14.090227580343413 -39.037467201044116 -10.667243146646037 -65.170716115954 7.548072578915842
204.01145040923606
