weights.npy (npy, 2088 bytes, 1 tensors)

array f8 [251]
00000000: b7ed 74a1 873b 20c0 30cd d8d0 0a27 2e40
00000010: df71 8262 1349 3840 10ac 535f 7ac3 00c0
00000020: b778 d605 7c8d c03f 632e 7dd2 589d d43f
00000030: 9cf0 b662 ec9d 19c0 2116 3025 01a6 24c0
00000040: b044 0c0c 7a99 ddbf 427c 2ac9 83e3 2640
00000050: 2f03 32c6 df21 3c40 6136 ec86 540d e3bf
00000060: 6b92 f185 fc13 b63f 189a 4cce 9767 1740
00000070: b234 5cca 8b1c b03f 0f0a fee0 0c2f f43f
00000080: 5540 5fd6 7952 2740 bdb4 dde2 7bc3 2bc0
00000090: 2a38 d9ee b0a9 e3bf ed5c 2e8c 2ea6 05c0
000000a0: f0f9 fab0 bf95 0240 f6f1 75a3 c2d6 4040
000000b0: 21de 2d55 4895 843f 7f0e 0446 641a 1540
000000c0: 2a17 01cd b598 00c0 d62c f9fa 9fa8 d9bf
000000d0: 512a 7c7d 3a2c 2a40 3c4c 7ef6 37b5 01c0
000000e0: 401c e9d2 7ce6 e13f ff10 c1b7 6229 3ac0
000000f0: 81c8 e74b e097 b23f 9857 40d7 eb53 d2bf
00000100: 0790 97d3 45a6 0940 95dd 4ca0 48a1 2d40
00000110: 5bec d84b b0d5 0040 0adb 4d6e 7953 2240
00000120: ece3 249c d32c 1340 40ea c01e 8483 f7bf
00000130: f2ca 13b9 9fa6 22c0 1760 bd47 09e3 0b40
00000140: 447b ad0c 8cc9 b23f b7fe b2e1 be94 12c0
00000150: 974f 6dd3 05c6 22c0 4852 9bac 4706 e93f
00000160: 2158 73de 71e0 0c40 8e42 f59c 9492 2dc0
00000170: 156a 7e17 07cf 2540 b4ee 9cc9 760f f9bf
00000180: 1105 7208 ae4a 0140 b430 c1da 650c dd3f
00000190: 88eb e46a e2de d8bf 8c97 03cd 4afc 2540
000001a0: d455 2ffd f4de eebf 8c59 4dea 6c9b b8bf
000001b0: 037d 5c7d ed9f 2440 72c8 cfb7 5689 bbbf
000001c0: 58b9 83ec 899b 2540 4640 1b23 0cc4 3040
000001d0: 026d d995 d71f 25c0 bd91 aa43 e1fb 2040
000001e0: 61c4 36f5 027f f53f cfcf 0cbe a06b 23c0
000001f0: adf0 06dc 46c0 ff3f 9b48 2bf2 20f7 1d40
00000200: fc7c 10d3 60d9 01c0 3662 0cb6 4208 e13f
00000210: 67ad e855 9bc5 1240 cf5f 2b42 da55 15c0
00000220: ddb6 a212 3ca1 0140 e4fc 8038 4e35 19c0
00000230: de44 573a c062 33c0 b464 a1d6 89e9 2140
00000240: 0fa1 08f1 5539 0040 4501 ce51 f6a8 f1bf
00000250: 1dfc 1742 c2dd db3f 5889 fb29 e863 f03f
00000260: 38ca 29bd e9b7 0bc0 c917 b224 0762 f13f
00000270: 31ab 1ca1 1e15 07c0 e8d2 2b4c 89ab 22c0
00000280: df2c 900f d553 c0bf a703 c021 5823 02c0
00000290: b696 8342 7f4d 3140 7977 72d9 3bbb 2840
000002a0: f8f1 ce88 cbee 0140 e4b5 7a2a de26 1340
000002b0: 4e02 7165 2595 0ec0 f499 f503 e29a 05c0
000002c0: b1aa f0a9 20f6 1cc0 fcb0 49bc af52 01c0
000002d0: fe6f 43cf d6d2 0dc0 b9df eb93 64cb 1c40
000002e0: 92cb 4e85 0700 21c0 d7e5 c427 5720 f33f
000002f0: f8b9 5997 ec01 1540 6dad 7ec6 173e 1ac0
00000300: 9212 b47b 849b 1140 2715 2824 d42f 06c0
00000310: 301f 0bf0 dd46 ff3f fc4e dc55 b9a4 e33f
00000320: ddbc d6c4 1869 f83f b414 c72c d5fb 2ec0
00000330: e016 3118 be71 f2bf 146c 965d ba28 01c0
00000340: c799 ce49 094e 0640 5e8e 2158 917f c9bf
00000350: f668 c8a6 cb70 2bc0 ad51 4dab bf27 2740
00000360: 5ca5 a3f0 a4f1 3a40 d8cf 0d72 212d 23c0
00000370: 0088 57aa 0278 2fc0 15e6 c9dc 8368 2540
00000380: 146a da95 a629 fc3f 658a 1348 10b1 35c0
00000390: b030 0dc0 50e6 20c0 785e badc de09 0cc0
000003a0: 7d2f 36a6 845c 33c0 579b 7279 f882 34c0
000003b0: 1274 052e 5290 f83f 24c3 0c8c 937c 1940
000003c0: 01af 0c77 72bd 2c40 c374 a234 b7ed f93f
000003d0: 8f4a 5237 f119 f63f c786 c822 716e 1740
000003e0: c806 ea78 f7c1 1bc0 8b47 19fa 4da0 bb3f
000003f0: a020 c36b 9708 2540 ad1f 302c fac8 0340
00000400: 0469 c2cc bd79 dc3f c639 2990 b3ca eabf
00000410: 9f65 0d6d 74bb 50bf 6bbe d489 1e18 1a40
00000420: 9d22 bf3e e773 18c0 f0dc ff0c 47a9 d1bf
00000430: 0ffa a3d3 1d18 2140 6b18 89bc 75c3 2cc0
00000440: 0ace 55c3 78c1 1a40 7481 aff6 db87 f5bf
00000450: 5cea 2917 4009 28c0 f5af e2e3 f16b f3bf
00000460: 5157 e410 577a e33f 5e7b c193 746a e1bf
00000470: 366a b56e dc41 f0bf cdec 2df9 3613 a5bf
00000480: 59d1 3634 20d1 17c0 0d0a cd35 d2c4 34c0
00000490: cc1c 0f98 f190 eb3f a51e 4801 5d8d f5bf
000004a0: e7cc a647 e0e1 ef3f 8c37 757c 4c2e f5bf
000004b0: 3e8d 531c 445a 933f 8c3b 8be3 2e71 04c0
000004c0: cfea a30b 814e d0bf 01e8 b231 ab8c d8bf
000004d0: 88db dcb5 ca4a f1bf cbcc 42ec d2ff 9fbf
000004e0: db4b 48c0 3c64 f63f ccc6 7d60 7139 0640
000004f0: 2542 70a0 0994 efbf e346 0029 48db c23f
00000500: 1a03 8ced 15cb 1bc0 d7c6 ed83 1126 cb3f
00000510: 9fea 7ae5 598f 9b3f d386 109f 0553 c63f
00000520: d24d 7c2b fb20 df3f af58 f535 9044 c7bf
00000530: 7a8a b4f0 ffb9 c43f 9253 8154 74d5 eb3f
00000540: 6f83 a447 10cd c23f 3e4c 269c 9b10 1b40
00000550: f509 66cd 662b e4bf eca7 422b e3f4 d63f
00000560: 522b e7a8 be6c b6bf ac2b d18c 27e4 b5bf
00000570: 61a3 158d 0750 f03f f064 bcc9 d649 1bc0
00000580: a4d0 4e2a f36f 21c0 cba8 b6a9 c516 24c0
00000590: 4662 31ee e54b c13f a93f 4f53 b9c4 0740
000005a0: 5d4b 8a26 db48 d33f 849e 7dfc 198b 40c0
000005b0: 407f 4b9c 5935 cfbf e459 c298 cae5 2b40
000005c0: 26d4 2b4c 9675 0fc0 f28c 9819 0c70 2640
000005d0: 75c7 5c21 e004 0b40 5bdc 2b65 6878 07c0
000005e0: e257 9ca0 c9a5 30c0 6007 71c4 2b7b 08c0
000005f0: 65aa 43d1 c95d 0bc0 145a ddb6 2960 1740
00000600: 4ba2 5d91 07b7 1640 108a be27 eefa 0340
00000610: ae2b cf5f 66fd e7bf cb3e 2ee5 eaa8 3340
00000620: 26b8 7ced a39b 3f40 4b51 ca12 4441 05c0
00000630: d724 d9ef 5fb4 f1bf b411 4578 0fc3 22c0
00000640: 9ef1 175c 2218 2240 5a33 8981 e5e6 f2bf
00000650: 1ed6 2aa0 5331 16c0 e308 ca8c c8e3 0cc0
00000660: 33b6 b95a 88ed f93f e293 f4cf d54a 3840
00000670: 4521 7bb3 cd6a 04c0 f4a5 ac50 083c fabf
00000680: 89b2 4242 5d15 03c0 4a27 1821 735c 0440
00000690: 0bca 427d 6c34 f5bf b85f c995 705f ff3f
000006a0: 3b8e 37c6 7b1a 35c0 e6cc b053 4721 fe3f
000006b0: 774c 9377 c545 2140 7ae6 3f1a 7905 1240
000006c0: b2ce 57cb df45 1540 674b 6241 528d 2040
000006d0: d79e f328 d6d0 0f40 00b9 ed36 e65e 1140
000006e0: 2bc4 99be ea9f f9bf 49e2 4209 f3cc 0340
000006f0: 2292 4df3 4e33 3340 8814 b613 763d 2140
00000700: 44fb de46 7793 0b40 1553 43c5 7caf 0b40
00000710: a0e9 d162 0a09 1740 8a69 e70e 5a2e 44c0
00000720: 652f 28d3 e6ab db3f 9fa5 cfa0 9b34 04c0
00000730: b45f 01cb 670f f53f f258 90ed 62e4 2ac0
00000740: 5c0b e690 c194 2240 4e4a b03c ea0c 41c0
00000750: acfb 380d c40c 3a40 08b7 6863 2bf9 1840
00000760: 9b5c 0db0 9997 2d40 9860 500c 1830 0140
00000770: cfc6 9063 511c 2c40 0526 6b53 f8a8 3040
00000780: 4e6c ce1c d9a0 fabf 498a 15ba cebf 4040
00000790: d4ee f963 d9bb 4440 7076 ce82 99b4 0940
000007a0: 3b22 a88a 9fa2 4140 c63b 1d5c 8411 32c0
000007b0: a8ff 4062 2621 2140 557f dcaa cbe8 ff3f
000007c0: f333 8134 d65d 24c0 eb73 30d8 930e 2440
000007d0: 84ec b21f 5546 4640
-8.1162691550479 15.076254393067387 24.285452038618924 -2.095448250523539 0.1293177631859572 0.32210369639935815 -6.404222052016987 -10.324227487678458
-0.46249247719340314 11.444364820896343 28.13232077332503 -0.5953772196969106 0.08624246854885491 5.851165030885134 0.06293557825502452 1.261486891628582
11.661085795523983 -13.88180455166218 -0.6144642510423683 -2.7061434699677336 2.3231195284454245 33.67781489619294 0.010050358867132183 5.275773138043973
-2.0745655075032987 -0.4009170485412147 13.086383744627854 -2.213485646943381 0.5593856925341996 -26.16166256392989 0.07262994626197107 -0.28637214680326784
3.2061878710392224 14.81500721872616 2.1043401647162177 9.163035819057331 4.793775977851492 -1.4696084214507579 -9.32543733946429 3.485857544390466
0.07338786420357929 -4.6452594056606165 -9.386763197988143 0.7820165988183101 3.60959218778136 -14.786290078104937 10.904350980931705 -1.5662753940113534
2.161464754085167 0.45388170588263255 -0.38860378683937613 10.992758185089563 -0.9647164292352337 -0.09612160415904308 10.312358777561263 -0.1075643728979985
10.803786650733556 16.7658101979762 -10.56219166068195 8.49195300538201 1.3435086802167222 -9.710210742057738 1.9844425768670064 7.491336616412947
-2.2311417092711263 0.5322583728439614 4.692975370718478 -5.333840402505259 2.203727861014029 -6.302056200859827 -19.385745664888297 8.956129748536434
2.027995951724854 -1.1037505336281168 0.4354100842901419 1.0243913307136463 -3.464801290357425 1.0864325936722585 -2.88531232708683 -9.33503187212905
-0.12755835781022193 -2.267257941887198 17.302723080755378 12.365690989706978 2.24159914857432 4.787956870784431 -3.822825233947049 -2.7006264027906983
-7.240358977617391 -2.165374251364595 -3.727948779340294 7.198625861426927 -8.500057378643564 1.1953956178170893 5.251879086352794 -6.5606375708406235
4.401872570863491 -2.7733538460476157 1.9548015000054413 0.6138579060520608 1.5256583870903377 -15.491860770513405 -1.1527691788664285 -2.1448867141275603
2.7881036535429504 -0.19920555880809138 -13.720303737606155 11.577634194553719 26.943923034622784 -9.588145794092199 -15.734395335373847 10.704131030698628
1.7601686338081253 -21.691654686709075 -8.449834825143938 -3.504819607198268 -19.361399067143328 -20.511603918533492 1.5352346227366565 6.371656597403476
14.370013923929493 1.6205360466040453 1.3813335572237155 5.857853454102673 -6.939420594486087 0.10791480403830016 10.516780250138538 2.4731334163843344
0.44493050571476567 -0.8372438254971761 -0.0010212552044407198 6.5235539947603725 -6.113186817565887 -0.2759568812320614 8.547102559820841 -14.381757632956768
6.688937236892807 -1.3456687580256501 -12.018067096583017 -1.2138537313248865 0.6086840944214861 -0.5442450414519546 -1.0160793613964763 -0.041162221829802094
-5.954224410863696 -20.76883255248872 0.8614433259871475 -1.347012524611196 0.9963227652973757 -1.3238034116397754 0.0188990251816794 -2.555265214621107
-0.2547915090250798 -0.3835857377376897 -1.0807597259533583 -0.031249328298781614 1.3994719992667715 2.7780482805618245 -0.9868209966244349 0.14731695177083912
-6.948325835867559 0.21209925596081433 0.02691402876983295 0.17440862910102925 0.48638800856244047 -0.18177988657652608 0.16192626240907143 0.8698064470760178
0.14688304422545737 6.766218604886545 -0.630298043412323 0.3586967394318197 -0.08759681342705264 -0.0855126112739259 1.0195384513010242 -6.8221084138142345
-8.718652078743908 -10.044476798579486 0.13512872820389726 2.9710566052017 0.30132178081219313 -33.08673053869009 -0.2438156140478842 13.948811315273765
-3.9324155760646304 11.218842315551658 3.3773806196631377 -2.933792868042969 -16.647607839746236 -3.060142073344579 -3.4207950924658683 5.843909127483602
5.678739806499446 2.4975245575926763 -0.7496826049112906 19.659834216871598 31.60797008795648 -2.6568681209556977 -1.1065368050642996 -9.380977400237363
9.04713714401515 -1.181371217727437 -5.548170569052244 -3.61122236243783 1.6204913658106193 24.292325017176957 -2.552150156207207 -1.639656367430118
-2.385431783352321 2.5451414666648917 -1.3252987759593704 1.960800728897068 -21.103451145709396 1.8831246632733438 8.636272179346845 4.505344782018819
5.31823652003702 8.276018183945508 3.9769709777209346 4.342675073871078 -1.6015422292077897 2.4750729297195773 19.200423437536422 8.620041480995738
3.4470048462675624 3.4606871997042483 5.7588286820049746 -40.362123358721036 0.4323670446471993 -2.5256874621743033 1.3162610940835124 -13.446067260618722
9.290539291459645 -34.10089834793017 26.049866510784042 6.243329575792593 14.796094419127533 2.1484833681134425 14.055308448241162 16.660039151820474
-1.6642695546386395 33.49849630405203 41.46757173255688 3.2131834239251518 35.270493824097194 -18.06842590059002 8.564745970186621 1.9943348573942405
-10.183274880191652 10.028471713938378 44.54947277294653
