10032016run/binaryData2/weights.npy (npy, 888 bytes, 1 tensors)

array f8 [101]
000000 02 a0 9c b6 80 41 f8 bf f4 84 80 27 7a 95 a6 3f
       -1.5159918912195285 0.04410917026712893
000010 b5 70 df a7 5d 4f a7 bf 30 ac ea c7 21 68 f8 bf
       -0.04552738832691842 -1.5254228410001467
000020 2b 64 02 37 1d 4e 3d c0 cf 62 c2 4e 3d 4d fa bf
       -29.30513328369504 -1.6438572956596322
000030 e6 b3 61 33 d9 1e d6 bf 9e 6d 79 1c 81 52 aa bf
       -0.3456328393720568 -0.05141070816599867
000040 a3 2c e9 73 a0 4f aa 3f b3 ed e5 97 5d 19 af 3f
       0.051388754033348215 0.060740399162536284
000050 ab 3a 79 7f e4 c7 a4 bf 93 1f 3c 50 fd a8 e2 3f
       -0.04058755928109766 0.5831286017500922
000060 89 b1 52 f0 a4 e4 81 bf 48 75 a7 82 d3 da a4 bf
       -0.008736885627819617 -0.04073201150797928
000070 0c 66 bc f4 28 73 58 c0 80 bc d1 c1 9d a4 44 40
       -97.79937475584319 41.2860643648246
000080 16 29 2d 83 c0 47 9b 3f 35 0f 50 77 d4 b4 b6 bf
       0.02664089966428048 -0.08869674599560258
000090 83 47 6d 42 bc a9 b6 3f d4 f9 5e 2d c5 3a dd bf
       0.08852745649099174 -0.45671204977761914
0000a0 d9 5d 49 f1 ae b8 bb bf c7 d0 e7 48 e3 ff d3 3f
       -0.10828679457460257 0.31249315375977144
0000b0 39 5f de 9e f2 ab b0 3f 8e 60 4a 57 59 71 bb bf
       0.06512371424321096 -0.10719831830135915
0000c0 b3 c0 8f 17 f5 b0 3a 40 32 60 1d 92 f3 fd 6e 40
       26.691239807697183 247.93598275887922
0000d0 05 9a 79 40 5a 70 b7 bf 8d 3d e9 6a 25 28 d2 3f
       -0.09155811380478703 0.2837003273061434
0000e0 54 00 ac 5a 30 2b d2 bf fa a5 86 cb 0c 8d cd 3f
       -0.2838860402553156 0.23086700380126485
0000f0 05 c8 19 76 8d cb b5 3f 4f 05 0a 39 2d a0 e4 3f
       0.08513721593206476 0.6445528139158031
000100 9a de 1d ba 63 0a bf bf b2 0b cc 60 f2 bd b5 3f
       -0.12125228208412367 0.0849296079941684
000110 95 2f 0b 78 1a 2e 4d c0 59 4a b5 48 9f e1 65 c0
       -58.36018276735482 -175.0506938496426
000120 3a 4e 02 b0 a5 9b e8 bf f6 6b a1 11 02 02 f0 bf
       -0.768999904410925 -1.000490254277563
000130 c3 5b 4d cd ee 02 f0 3f fe 86 7d da 83 3a e5 bf
       1.0007160205475294 -0.6633929507626986
000140 2d 11 a0 b8 ec 02 cb bf 8f 60 a4 7a 51 97 f3 3f
       -0.2110267545214212 1.2244429388720481
000150 d5 b3 7a 63 2d 12 c2 3f f6 54 ce e4 dc 58 cb bf
       0.14117972714794172 -0.21364937946479018
000160 56 f1 64 67 27 5e 6b 40 6f 41 61 27 ad ec 7f c0
       218.94231004443526 -510.7922738837287
000170 c1 8e 1f 3f 4e 9f 13 40 04 ae 0b 5d c6 cf ff bf
       4.90557192449677 -1.988226283511609
000180 1a 33 fc c4 5c d1 ff 3f 90 de 0a 33 18 01 c7 bf
       1.9886138624889953 -0.17972090236957117
000190 e0 eb d5 2a 7f 94 c3 3f 6f d8 84 b9 95 b5 ec 3f
       0.15296926108916775 0.8971661208550027
0001a0 b7 3c 19 ec ed 13 d8 bf 91 c6 2f a9 a2 a4 c3 3f
       -0.37621639305593696 0.15346177350106818
0001b0 74 72 e9 44 3c 7e 80 c0 62 58 b1 0d 7b ab 2a 40
       -527.7794283140233 13.334923198603239
0001c0 5f af c4 00 1a 91 f1 3f 69 93 dd 6f fb e7 ce bf
       1.0979251890193706 -0.2414545341699992
0001d0 0a 0a cc 35 96 eb ce 3f 9b 7a 04 65 fc 0a e9 3f
       0.24156453730400101 0.7825910542486157
0001e0 cd 07 c2 d0 44 d8 d4 bf 58 74 81 7f d3 af 88 bf
       -0.32570000063435317 -0.012054111794151876
0001f0 1e ad a1 ea 61 8d 0d 40 16 0a 76 e3 4b 81 d4 bf
       3.6940344172086403 -0.3203916283893319
000200 69 24 f8 f3 e0 c6 90 c0 c9 7d d2 fe 9a 50 5a 40
       -1073.7196806690429 105.25946016841694
000210 4a 75 92 f3 fc 40 e3 3f b3 2b 28 5f 17 b5 d7 3f
       0.6016831166522618 0.3704279355303541
000220 ca 25 ad 11 76 b5 d7 bf a8 37 84 4c bf 58 e2 3f
       -0.3704505131359751 0.5733334059202564
000230 51 52 11 a2 fc e9 8a bf 66 42 71 ba 78 74 d5 bf
       -0.013141606994545503 -0.33523386199252625
000240 c7 42 a7 f7 d6 6a 9d bf a0 e5 8e 22 ff 77 8b bf
       -0.028727873673974693 -0.013412469141132644
000250 c4 bf 55 2f 7b 2b 4a 40 ba 83 65 93 f5 c2 9a 40
       52.33969680487601 1712.7398200856828
000260 31 00 bd 38 9a 2a e5 bf b0 a4 16 ef c8 fc e9 3f
       -0.6614504917306531 0.8121075315185831
000270 43 cd 95 e4 a6 ff e9 bf 12 a9 93 46 eb 37 a9 bf
       -0.8124575104288073 -0.049254753461200576
000280 a8 45 34 c5 e6 3b 29 40 8c 9a 9d b6 33 70 af bf
       12.61699501288497 -0.06140290836520021
000290 e9 89 bf 27 61 de 72 c0 1e 39 1c bc ff 2e 29 c0
       -301.89871954746064 -12.59179485172768
0002a0 76 d0 18 b2 21 eb 83 bf 42 e0 1b 6c 7d 8f 8a 3f
       -0.009725821731173517 0.012968997823449627
0002b0 c1 87 20 3b 4b a5 9a bf 44 8b 5a cf 45 27 68 c0
       -0.02602117107756619 -193.2272717255056
0002c0 81 69 89 17 73 25 68 c0 04 d2 ea bb cc a9 a8 3f
       -193.17029930914217 0.048170469225997464
0002d0 63 7a 62 15 a1 3f cb 3f 04 8f 9e 9d f1 aa fd bf
       0.21287931007551028 -1.8542343289381629
0002e0 f8 a2 97 9b 66 13 25 40 74 58 7e ae 7f dd ca 3f
       10.53789221025498 0.2098846056002831
0002f0 16 58 20 3a 76 4c fb 3f 5f cc 52 19 45 c3 83 40
       1.7061674376068416 632.4087397068614
000300 32 c7 b3 6a c8 de e8 3f b8 6e 99 a2 46 f9 fd 3f
       0.7771951755550843 1.8733583785569135
000310 8d 8e cc 1d 94 fb fd bf cd b0 1e c1 ae 8b e5 3f
       -1.8739205516839406 0.6733011028168449
000320 e3 22 ff 0d bc 33 80 40
       518.4668235714456
