10032016run/binaryData2/weights.npy (npy, 808 bytes, 1 tensors)

array f8 [91]
00000000: f065 6976 7dc8 01c0 a05e 3c8f d249 adbf
00000010: 4552 f5c8 9040 ab3f 5ac5 a267 70a2 05c0
00000020: b303 e71c 11fc 1b40 704a e768 c62f e63f
00000030: 875b 17db 7a46 c63f fa19 14fe e6e8 ab3f
00000040: 9ee0 f416 e8fa be3f 6be1 be40 899c ccbf
00000050: b4b9 ca9e 2a1a b43f fdb4 6d9f 031e 92bf
00000060: b613 ac15 5d02 923f 7ab6 f72a e209 06c0
00000070: a1b1 f470 9e0e d23f e4bd 5adb f565 0d40
00000080: bcb1 cf3d 5e36 b53f 8262 4d56 00c5 d33f
00000090: 8415 e625 18e4 e53f 94f2 e8f5 db4c ab3f
000000a0: b588 6727 5f87 b2bf bd80 14c4 f0e2 823f
000000b0: 18ca e3f4 bb68 84bf 18b1 d9a5 9ee9 05c0
000000c0: 7550 bbdc 9f58 e8bf 96cd 9577 c694 0fc0
000000d0: f20f 484b 7afa cb3f dc9b 740d 2cbd e4bf
000000e0: 3737 ab2f 3858 edbf 7eb6 ebff a492 b23f
000000f0: 3a7e ce4e 2b4b be3f 82d7 481c a3de 9ebf
00000100: 65c4 7779 1e83 9d3f 22eb b4a2 25cc f93f
00000110: 4b76 e18e 9be0 a0bf 7f31 5128 981a 1540
00000120: d699 fe2e fb34 e23f 3562 3351 4f90 e43f
00000130: 0a3d 884c 683d e1bf c5bb bcae f0f3 c1bf
00000140: 2212 cbd0 17bc e8bf efea 7252 0bfa bf3f
00000150: b304 6e69 6f3c bfbf 3431 a05c 21c1 e13f
00000160: b4db a296 c391 02c0 c12d 0dcf 8723 2740
00000170: 041d d686 7646 10c0 b7d1 c906 20ea d13f
00000180: fc0c 9f56 aa59 f5bf c439 ddfd b018 b43f
00000190: 5878 d447 4b0a dd3f 9b7f bee1 55f9 babf
000001a0: b034 dbe2 ec47 ba3f a669 f71e 65a4 f13f
000001b0: 9642 66ce 1844 d23f 3eb2 4001 803c efbf
000001c0: ac40 23b5 4c6a e3bf 869c 17a4 b21f f1bf
000001d0: a273 f33f d03f ddbf 9af1 1432 faf4 ccbf
000001e0: a26d 5d6c 8c77 cc3f ec5d 074e 7830 a33f
000001f0: a763 8b0a 157a a3bf 4e32 571d 6fcb 0340
00000200: 4013 fea3 d5c7 00c0 ffac aaf3 ca19 09c0
00000210: 0985 11d5 3e58 bb3f 61de 26d3 4100 e7bf
00000220: 7884 62d1 a754 b13f 207e 58a6 c233 1940
00000230: ddde 57a3 6ae0 b1bf d995 b9f3 de5f 6140
00000240: 7aac 2dd4 484e 7140 2b31 6252 b37c 893f
00000250: d6dc 598d ceab 8e3f 900b fa42 c5dc 8a3f
00000260: f1e3 3993 4c64 a43f 6a27 dabb 3236 a3bf
00000270: cdad 02a5 7c05 a2bf fa16 536f 895b 37c0
00000280: 7747 0234 c786 e5bf cdd5 ca22 8205 0240
00000290: f0c5 1919 fd4c 06c0 fe64 47dc 9ca2 1140
000002a0: b691 73bd fa5b 11c0 cd4e 3118 2e61 17c0
000002b0: fb5b 09b3 33e4 bcbf 0a57 9c33 ed3a e7bf
000002c0: 9460 8f9b 4137 e6bf 64f1 c1e6 4f60 2640
000002d0: 3ba9 b406 9e52 7140
-2.222895550815103 -0.057203845963326616 0.053226971179047435 -2.7043159576939333 6.99615903053284 0.6933319138427816 0.1740258760243842 0.054511278644032005
0.12101603088820176 -0.22352710400970052 0.07852426888232494 -0.017692619901414897 0.017587141464008936 -2.754825912174792 0.2821422675213175 3.6747853409831226
0.08286084183754999 0.30889900615651567 0.6840935459337492 0.053320764320664044 -0.0723781081392499 0.009221917137040564 -0.009965389643615416 -2.7390721280154473
-0.7608184157529779 -3.947644171008231 0.21858147312025228 -0.6480922949602888 -0.9170189791709394 0.0725501179510619 0.1183344905280074 -0.030146168328620167
0.02882049194699156 1.6123405795794459 -0.03296362036847408 5.275971059756897 0.5689674299108514 0.6426159463836202 -0.5387460226792495 -0.14025696308223537
-0.7729605749123645 0.12490912211334736 -0.12201591800659876 0.5548254784676261 -2.321173836560286 11.569395513876659 -4.0688115184959806 0.27991486227918067
-1.3343909629482473 0.07850176046233687 0.4537532998527971 -0.10536705743152057 0.10265999353869648 1.1026354989649945 0.2854063048953689 -0.9761352562396224
-0.606726030144292 -1.0702387246945206 -0.4570198654671974 -0.22622611470604853 0.22239833155877614 0.037479171299931696 -0.03804078820912276 2.4743330280528317
-2.0975754558479878 -3.1375941311322317 0.10681526853433722 -0.7187813877162165 0.06769799100813312 6.300547217513241 -0.06983057487365892 138.99596582648408
276.892780474103 0.012444878532072842 0.014976133049670198 0.013116398912875998 0.03982772156900428 -0.037522874289677 -0.03519811167037865 -23.357565839562973
-0.6727024093436133 2.252689620795286 -2.787592121218715 4.408801500184607 -4.339823684862884 -5.84490239907218 -0.11285708542833099 -0.7259431846639199
-0.6942451513559882 11.188109599280047 277.1635806138108
