10032016run/binaryData2/weights.npy (npy, 808 bytes, 1 tensors)

array f8 [91]
00000000: a8a8 8a47 7325 c8bf 41a3 48c4 c019 fa3f
00000010: 0e8a 7075 7a16 fa3f f3d1 3059 b8a2 f43f
00000020: 85cb 8b84 15a5 d13f 1ccd d048 ee54 b7bf
00000030: 81fe 13a8 1906 c13f 1bc2 4c79 b391 973f
00000040: 77fb 8382 8a54 63bf 171f 88d3 deca 59c0
00000050: b152 504a 1750 a03f f3a2 d949 f37a 773f
00000060: bd42 d724 e699 773f e2e7 2285 eadb a5bf
00000070: 8404 5673 faa5 f2bf c0b8 7b21 d39b ac3f
00000080: 90da babc 0e76 d53f 187e 5482 23c2 aebf
00000090: 0f7b 5143 1237 7dbf 999f 1f37 4295 91c0
000000a0: c545 8758 5583 be3f 6caf 93b7 0fa0 c53f
000000b0: 7104 7279 74a8 c53f f8ab bcf6 6f5a e53f
000000c0: a593 d685 6171 72bf 9cef 7f46 4fc4 b4bf
000000d0: c2e3 e840 90a3 ec3f 888c df78 e0c6 b43f
000000e0: 9426 3074 ef52 c5bf b7d3 4ebe 830e 78c0
000000f0: 8943 5937 0ba8 c0bf b0d6 afe6 26ce c3bf
00000100: b3bc 433e 05d1 c3bf d954 fc0f a7c1 e6bf
00000110: 3753 302b a3f0 f6bf d99f 7caa 2f67 d1bf
00000120: 1832 9a8a 1c8f f53f d83d a141 c114 dbbf
00000130: 0115 8431 8b65 d63f 62f1 371e e8c9 6d40
00000140: cf87 4f2a 5bea ae3f a5ad 227e 7fb3 d83f
00000150: b3fe fc03 32b0 d83f 92ef a912 1d1c 0140
00000160: 52f0 6b40 8a07 e5bf 235c c932 0ed1 0d40
00000170: 1e14 b917 f026 0640 79a4 9a56 3ab8 ecbf
00000180: 9b45 8542 c457 dd3f 2c47 d640 20a4 5740
00000190: 5389 dd24 f738 d5bf 3415 6d73 8946 c7bf
000001a0: 00d3 9c95 d243 c7bf d8c0 c4e0 7ba6 e2bf
000001b0: 34bb e4a6 7bda f63f 5de3 b2a2 9662 e53f
000001c0: 05c7 f783 6a92 f13f ea39 ec95 a814 d03f
000001d0: 4f8c cd98 70ae cfbf c5fd 33ca 1567 8a40
000001e0: c051 2126 5bb2 1240 4971 eff7 cdeb c83f
000001f0: b3de b926 2803 c93f 805c c08d 3984 fb3f
00000200: 77ff 0d8b 5e83 f03f 5e3c 546c c22e ac3f
00000210: d8c1 3e31 eea5 a93f 82cf ce48 fc22 d63f
00000220: c002 98ab e392 d2bf 1dae cdcb 77bb 8440
00000230: 4468 ac2b d917 50c0 19cc f0d3 550b 5740
00000240: 9c64 425b 7b0b 57c0 0a1f c70a c516 a3bf
00000250: 2f7f 857c 893c 983f fea3 c09d b03a a6bf
00000260: aede 4d8f a2af a1bf f7a5 73d9 9a2c d4bf
00000270: 1d28 a357 fd4b d6bf 000f 475d 59b6 803f
00000280: 2c7e 32a4 9dbb 2440 2e50 8d8a 8236 e0bf
00000290: c78a db54 ca3c e0bf 5875 03ac 17e5 1140
000002a0: 363d 8934 97af cebf 9465 02bf 6e4d b03f
000002b0: e4f7 a7b1 8edb 0ac0 da12 7451 fb55 ea3f
000002c0: 3b45 c284 23c0 ecbf a8dc ec4a 77cb 8a40
000002d0: 9846 20af 52b8 5b40
-0.18864289277309365 1.6312873523076663 1.6304878795132285 1.2897265895854815 0.2757009310145622 -0.09113969114041648 0.1329986639684542 0.023016742971949094
-0.0023596482534453084 -103.16985023778066 0.03186104566717541 0.005732488961805104 0.005762003898283905 -0.04269345164489359 -1.1655220513642073 0.05587634834033528
0.33533066206602147 -0.06007491079276067 -0.007132598247237678 -1125.3146634045754 0.1191914883741197 0.16894718612399673 0.169203337955 0.6672897166330349
-0.004502659748514858 -0.0811204478376894 0.8949662463920662 0.08115961981779851 -0.16659348653074757 -384.9071639136486 -0.13012829020092578 -0.1547287584686976
-0.15481629886878565 -0.71113923189355 -1.4337493598042792 -0.2719229855451864 1.347439328589763 -0.4231417790333274 0.34994773707906296 238.30958472181652
0.06038174525725958 0.3859556896010992 0.38575411214331295 2.1387273271665856 -0.6571704157099794 3.727077862520234 2.7690126279217244 -0.8974887553678307
0.45848185058738417 94.56446858335102 -0.3316018924725956 -0.181840115890887 -0.18175728135397407 -0.582822741509541 1.4283405799175855 0.6682847192488272
1.0982461123462042 0.2512608970727387 -0.24751098118858514 844.8856395780391 4.674175830634738 0.19469618421761428 0.19540883913918136 1.719781450001193
1.03207258527979 0.05504424641014148 0.05009407378327396 0.34588534460203146 -0.2902154136391282 663.4334941929588 -64.37263004147195 92.17711351886136
-92.17940408214275 -0.037283093991900954 0.02366843054312467 -0.04341651845636106 -0.03454311370199768 -0.3152224658539064 -0.3483880382378873 0.00816030326757966
10.36643708340042 -0.5066540437787859 -0.5074206979155286 4.473723113738139 -0.2397336012386206 0.0636815277415706 -3.3572057608971466 0.822995814408013
-0.8984544365832002 857.4332483773078 110.88004663612298
