11282016run/finalRun/nami/weights.npy (npy, 488 bytes, 1 tensors)

array f8 [51]
000000 92 e8 ae 42 e2 8b 7d bf 05 5b 55 c6 bc f1 d3 bf
       -0.007213481740956722 -0.31162948006151253
000010 36 05 7f de 48 f6 93 3f ff 6a 01 15 00 b8 95 bf
       0.019494188861931515 -0.021209718019558284
000020 cb f0 a8 2c f4 3d b6 bf 75 f1 49 50 f6 7c e3 bf
       -0.0868828400643366 -0.6090041702405374
000030 2c b9 00 65 13 8b ce 3f 10 eb bd 6f f0 34 da 3f
       0.2386192553689822 0.4094811526517086
000040 4a 26 e3 a5 b7 37 c6 3f ea a8 2a cc c7 cd ea bf
       0.17357535934415785 -0.8376196849469839
000050 b8 47 16 4d b8 39 b3 3f 6f 4f 3d 75 f6 be d2 bf
       0.07509948617942441 -0.29290543984574574
000060 99 f3 ff 24 c1 1a 8e bf a3 cd 60 5b 58 70 be bf
       -0.01469946760334455 -0.11890175085937087
000070 b9 96 65 51 c8 44 eb bf 37 1c 22 42 4a 0f c4 bf
       -0.8521463002950532 -0.15671661595499284
000080 b8 cf f7 3c fa c0 e0 bf 74 c1 00 34 53 ee c6 bf
       -0.523556822851325 -0.17914810218054422
000090 1a 71 28 37 00 df 8a 3f a7 18 dc 1d 10 bf c1 3f
       0.013120652850425563 0.13864327867503798
0000a0 3b d9 46 83 30 2f c7 3f 1f 20 c8 11 55 06 f3 3f
       0.18112760934827485 1.1890459723090385
0000b0 24 b0 cc de 1a 35 f5 bf c9 61 10 60 73 13 c9 bf
       -1.325465078650276 -0.19590608778595556
0000c0 cb 4d 5c 55 6b d8 de bf c5 ed 21 c4 56 71 c6 3f
       -0.48195918403618226 0.17533382965835478
0000d0 fc 69 21 a7 eb 49 e3 3f 68 14 fc 56 ba 85 ad bf
       0.6027735008495365 -0.05766088783097062
0000e0 a8 13 68 8a 26 7f a4 bf b8 36 ae 12 2b 13 da bf
       -0.040032581706362536 -0.4074199373652436
0000f0 f1 4b 2a 7b aa 67 90 bf df ee 85 88 b2 db f1 3f
       -0.016020454184921765 1.1161370594917839
000100 d9 86 91 a4 84 93 b5 3f 5e 71 89 a8 c1 b5 b4 3f
       0.08428219812187922 0.08089838375730582
000110 93 c1 8a 00 ae 9b cb 3f 4a 9e 77 85 4d 00 b9 3f
       0.2156884672781528 0.09766087063291554
000120 42 92 c6 37 f6 06 ca bf 61 d5 1c ed 87 a8 ee bf
       -0.20333745692654942 -0.9580726271730492
000130 e8 d6 c3 91 94 23 b1 bf c2 bd d9 01 21 a2 95 bf
       -0.06694916304317255 -0.021126285303066934
000140 d3 fd 47 84 a5 71 c2 3f bb 5a 6b 52 19 41 92 bf
       0.14409321745914258 -0.017826457648733234
000150 c4 10 95 0f 60 2f b4 bf 7a 90 ac 2e 7e f7 de 3f
       -0.07884788875986987 0.4838557678033407
000160 be d7 69 19 0f fd a4 bf ff 39 3f a3 78 b8 b4 3f
       -0.04099318680975682 0.08093980775377217
000170 b5 56 1d 26 28 59 f2 bf 2e 06 7b d2 b5 2b 02 40
       -1.1467668045856219 2.271342892054938
000180 dd b4 3d b8 23 da f0 3f b5 e5 0b 38 23 bb f6 bf
       1.0532567212024369 -1.4206878842654593
000190 73 b7 0b 2f fd 3f c5 3f
       0.16601528927952422
