10032016run/2yrbinaryData/weights.npy (npy, 888 bytes, 1 tensors)

array f8 [101]
0	0x3fa2d552f22c880d	0.03678378301835048
1	0xbf17d925476ed0a3	-9.097375901384818e-05
2	0x3f55bbf546c6df17	0.0013265509870574227
3	0x3fb2adbf3e3daa4c	0.0729636694865487
4	0xbf80fd691e15c460	-0.008295842390653785
5	0xbf99e52e01b8c53c	-0.02528831372746264
6	0xbf94a41c0c739023	-0.02015727830884385
7	0xbf853fc384866fda	-0.010375525934072916
8	0x3fb4e317b90646a4	0.08159015910339434
9	0x3fa31928f00d6c93	0.03730132990195858
10	0x3fa3338ef20783e3	0.037502734226798194
11	0xbfb6d2d7cfe691e6	-0.08915470910739706
12	0xbfd116e002953c71	-0.26702118160478167
13	0x3fbfcf0cb322eb1e	0.12425307630011814
14	0x3fd02fdd617c7be4	0.25292143364089115
15	0xbfbbe15c533ea7cf	-0.1089074805483101
16	0x3f8541c052942e4c	0.010379316825967731
17	0x3fd032ce13a1d19b	0.2531008903236171
18	0x3fba5997fdca48f7	0.10292959161805358
19	0x3fc1fd4927cfbf34	0.1405421680824418
20	0x3fc94d030cff9825	0.19766271719635245
21	0x3fc56127dce69499	0.1670274571053241
22	0x3fc99ad6f3a51196	0.2000378312751649
23	0x3fd99cbc46f654f3	0.4001913731566013
24	0xbfb2197bcb0d32e9	-0.07070134837449484
25	0x3fc1d3c9d012693c	0.139275766942612
26	0x3facb48be66044db	0.05606496035773897
27	0x3fb5e45bf1ca2984	0.0855157342249751
28	0x3f78afa5be33b86e	0.006026885446074199
29	0xbfc2e4325f5f871c	-0.14758901268856384
30	0xbf9ab0af7011624b	-0.0260646259451696
31	0x3fcd5c5c7c863326	0.2293811424282463
32	0x3fc3fcb7d9ab7602	0.15614984634787282
33	0xbfc232c1293e49ae	-0.14217390550454695
34	0x3fb14e410ae089e2	0.06760031238130851
35	0x3fd3a69094d09a20	0.3070413068075215
36	0x3fd6b4da3d3347e4	0.35478836037247974
37	0x3fc39e474dd65634	0.15326777744910347
38	0xbfc1742099912c74	-0.1363564252700119
39	0xbf819a897cfa4991	-0.00859553730632426
40	0xbfe0763a418de6a9	-0.5144320755345763
41	0x3fb59e85f381bb6b	0.0844501227854672
42	0xbfd93b316cb2a226	-0.39423785796182853
43	0xbfe82ef8ec137fed	-0.7557339297163687
44	0xbfcdafcf5a6cd5be	-0.23192779460229745
45	0x3fe0df203d072cad	0.5272370521501181
46	0xbfc8726531b397dc	-0.19099106718857584
47	0x3fd5ff33768eaff2	0.3437012346064413
48	0xbfd1bd05f93728fa	-0.27716206872413773
49	0xbfe44a9ea60e6025	-0.6341088526996869
50	0xbf9e914286dc8501	-0.02985099743012132
51	0x3f9d08151b49d7de	0.028351144590906922
52	0x3fd84e888bc937f2	0.37979329730012445
53	0x3fbb6270f82b7eda	0.10697084482989841
54	0xbfd621ed04acc8d9	-0.34582066971337394
55	0x3fb753e7030a578c	0.09112399887302852
56	0xbfa3b8e772fa9312	-0.03852008131551633
57	0x3fd319bd54176fa4	0.2984460183340565
58	0x3fc0c1e9bb992da8	0.13091775569988084
59	0x3fa3f34e233084ce	0.038965646548840036
60	0xbfa3a4255f896539	-0.03836170951098911
61	0xbf41720d3671dfaa	-0.0005323948397650731
62	0x3fa84be134a14d23	0.04745391623932906
63	0xbfbb09791770b675	-0.10561329672119675
64	0x3f975e8590865ecc	0.022821509309862972
65	0x3fad1b54b491c70c	0.05684914306847419
66	0x3f8a4a7a7459e346	0.012837368655924341
67	0x3f23e1532e29537e	0.0001516737020944812
68	0xbfc49537fe46ff45	-0.16080379405866033
69	0xbfb19a00ca6210d4	-0.06875615063660528
70	0xbfef549c8e244f39	-0.979078557606477
71	0xbff14da28453d99b	-1.0814538163227556
72	0x3fa7122bb41e993f	0.04506050657009774
73	0xbfe81e0b88a1bdae	-0.7536676090803007
74	0xbfd17ab2535c69ec	-0.27311380520555306
75	0xbfe9294ed284c29c	-0.7862924682322787
76	0x3fd56f5fabaca46f	0.334922711992994
77	0x3fc79bea50947c65	0.18444565710612718
78	0xbfc3bc4f2b2b1525	-0.15418424232317665
79	0x3fd1cd2022a6528c	0.27814486869582633
80	0x3fe0f017a46f8196	0.5293081485397575
81	0xbfe37ec1527fdc09	-0.6092230426137358
82	0xbfd560466250a1cb	-0.33400115586348694
83	0x3fe309faf15d5c96	0.5949682916788273
84	0xbfe0a763f28740b9	-0.520433400810382
85	0x3fe1852306f053be	0.5475020537875179
86	0x3fd38c0f473a2f23	0.30542356448926195
87	0xbfd67576886fcd3f	-0.3509193737401865
88	0xbfd7e7344e1db148	-0.3734865916110448
89	0x3fdc0103a86ec0e4	0.43756190727709865
90	0xbfee842bf092d20c	-0.9536342333508983
91	0xbfd517e4e89d5ff5	-0.32958338466914877
92	0xbfb9b28aad5892e8	-0.1003805802543628
93	0x400592358b533fbb	2.6963911900311053
94	0xbfd5c5330bcd4ae9	-0.3401610961201827
95	0x3fbe2f92f3ee2c37	0.11791342215853794
96	0x3ffdb9bd92cb3216	1.8578468069200702
97	0xc0002a93f209c22c	-2.020789996073537
98	0x3fe318be53a52d06	0.5967704423614186
99	0xbfe063d4a18dba6d	-0.5121863513321167
100	0xbfe4b3a0744b0783	-0.6469270964955601
