12042016run/pblData2/nami/weights.npy (npy, 488 bytes, 1 tensors)

array f8 [51]
-0.09997178467573677 0.012158091106913543 -0.003395086415413228 0.3234458828484795 -0.006076784086817523 0.2712244120303633 -0.9845668673375483 -0.29312225996216607
-0.12742328905309044 -0.3022177402508378 -0.10063436635498954 -0.05820847155982347 -0.5520698296813539 0.41982874693064526 -0.583327629027529 0.2311479778082056
-0.5092668744354545 -0.06789596117654592 0.9857676462062499 -0.07132822091892883 1.1932383142357272 0.7328522951840989 0.1251005704139137 -4.951208765886863
0.0962579655988132 -1.0414325660903425 2.013733560986732 -0.1311562152305391 -1.3668020609270872 -0.16130412167740266 0.6729865496546346 -0.45176011715476005
-0.08756639876148938 -0.0853856974837591 -0.0852847941563551 0.6339730448551714 -0.6819476794184647 0.16066776139980524 0.4431472429375326 0.15341594649651102
-0.04521291222128168 -0.05179239780280153 1.434054380303303 0.02297649718722503 -1.3709577929352739 2.455341213888133 -4.7747505051941594 -0.6236226278166214
-1.0093757602910298 -0.6652228593658289 0.4941916370731452
00000000: b97d b439 c097 b9bf 30e4 7c5d 57e6 883f
00000010: 4ba3 e123 03d0 6bbf 560b 375c 56b3 d43f
00000020: 5b0a af4e f8e3 78bf f805 e3a2 bd5b d13f
00000030: fe13 fe5f 9281 efbf 6318 11de 83c2 d2bf
00000040: e9aa 9d05 684f c0bf ea7e a913 8957 d3bf
00000050: 4e2e 5980 2cc3 b9bf 6330 6633 80cd adbf
00000060: ddde f258 8eaa e1bf d137 7f64 79de da3f
00000070: bdd8 30b4 9eaa e2bf f383 9cc6 4196 cd3f
00000080: 845d 540b ea4b e0bf dea3 c834 a161 b1bf
00000090: cc24 3d97 688b ef3f 05f0 20f8 9042 b2bf
000000a0: 3ca0 ff0e 8117 f33f e1a7 13a8 8673 e73f
000000b0: 12c1 51a5 4b03 c03f 429c b4ab 09ce 13c0
000000c0: 12f5 39ae 5ca4 b83f de8e c531 b5a9 f0bf
000000d0: 765d 5a57 201c 0040 e488 8a13 bac9 c0bf
000000e0: 8898 7cd6 6bde f5bf de3f a80b 9da5 c4bf
000000f0: e043 ad16 1b89 e53f d446 3444 a3e9 dcbf
00000100: 3dba e862 c06a b6bf 3628 3d4a d6db b5bf
00000110: 2565 bf69 39d5 b5bf 215a c6d6 8149 e43f
00000120: c8ee 95f0 83d2 e5bf b5e9 5dde c290 c43f
00000130: 5aac ee40 865c dc3f 5896 713c 22a3 c33f
00000140: 64d4 b196 2526 a7bf 2f29 7d7d 8884 aabf
00000150: 6769 8101 e3f1 f63f 79aa fb9f 2687 973f
00000160: 49a7 4d70 71ef f5bf 215d 31ef 89a4 0340
00000170: 3c79 4932 5819 13c0 3393 f070 b7f4 e3bf
00000180: a533 7d32 6726 f0bf 16e4 3073 8149 e5bf
00000190: 20e5 cbf5 d5a0 df3f
