RUN_20161001/weights.npy (npy, 808 bytes, 1 tensors)

array f8 [91]
3.175108640145896 -0.026371324036490028 0.036760536441548544 -0.018078185077039895 0.03207910460370472 -0.021706774819263253 0.10542443854816556 0.10418833592049663
0.03157983056264272 -0.03855439519142161 0.22647088731196213 1.6828135611825903 0.2253961761981638 0.3123017100177776 -1.679015239558586 0.2930614185843028
0.32086793289036236 1.7548359409615766 0.45962471234248475 -0.21341095511016853 0.49693190860457387 0.4272169997777209 0.13044458284055277 -0.4231093378013667
-0.42402820232893956 -0.45587202808248556 0.7302492385373461 2.2461683707792535 -0.781944858764767 -0.12970271339892867 -0.11276123088009894 -0.34405792225858756
0.11571142661798976 0.12807116127231863 0.3618458499733687 0.09451805550321318 0.3232126857293665 -1.369369356457081 -0.1807829399046884 -0.11637735979497164
3.566122822108592 -1.019386774895329 -2.0684795402034926 0.1072342509381486 0.9900879058002005 0.08131755579016722 0.2930146331733338 0.5590368847781472
-0.23400923013244465 2.110260207831063 -0.2775883934417208 -1.5194352119474128 -0.11888144171720826 0.10937619833745997 1.5212737579115867 0.13628800748892028
-0.16249454897333415 4.393132236914366 0.17188817715439836 0.09907941809653693 0.39289071188646907 -0.03376841793420566 -0.05391200447561475 0.04715442398495103
0.02585928805428039 0.05211727230635571 -0.22318079168673333 -0.02017140522013622 -0.001576419825607933 0.05215793727750661 0.011424193186811897 -1.8758765574016096
2.9417133226418373 -2.6827353019416695 -1.8525315759608176 2.905775167479303 0.11966378058171297 -0.021873448154961228 -0.18618207170321557 2.8698328974008214
0.14497210015273654 1.5282221530386153 1.1093219243317654 -0.07889493931654633 -1.5363092201472672 -0.04141786694207793 0.9436867861301059 -4.614621973534236
0.05458199651579898 -1.1479300373072885 0.6235289121697855
00000000: a663 d55b 9f66 0940 c6e0 2799 1501 9bbf
00000010: 3288 99eb 46d2 a23f ef2a b576 1683 92bf
00000020: f8d4 5022 ac6c a03f 502e cdff 4c3a 96bf
00000030: e376 c393 18fd ba3f cb37 6737 16ac ba3f
00000040: a5a4 f546 3b2b a03f a7ad edd4 66bd a3bf
00000050: 1220 407f fffc cc3f 5bb6 a8e9 cdec fa3f
00000060: 8910 b52a c8d9 cc3f 00b8 c04f c0fc d33f
00000070: 583c 7615 3fdd fabf 1c7e 22ae 84c1 d23f
00000080: c559 86a7 1989 d43f de67 04da ce13 fc3f
00000090: b770 fcc4 7d6a dd3f c534 67d8 0c51 cbbf
000000a0: 91e9 f27d bbcd df3f 94cb 95f8 8557 db3f
000000b0: eac9 9e78 68b2 c03f 324d 1f30 3914 dbbf
000000c0: e667 652f 4723 dbbf 49a1 f1de 012d ddbf
000000d0: 394c aea6 335e e73f b473 6e1f 27f8 0140
000000e0: c070 7539 b105 e9bf 2b1c 2038 199a c0bf
000000f0: c100 e386 ebdd bcbf 28f1 0185 0b05 d6bf
00000100: 7307 1999 439f bd3f 47d8 9cc4 a264 c03f
00000110: 5f0d f57e 7b28 d73f 6c8f 44d5 5532 b83f
00000120: 8109 b742 84af d43f 2e0b a2d7 efe8 f5bf
00000130: 0c5e 4837 e523 c7bf 4771 501a e8ca bdbf
00000140: 16ce f366 6b87 0c40 d767 c281 684f f0bf
00000150: f4f3 4c00 3f8c 00c0 0558 ca30 b473 bb3f
00000160: b376 f2d4 ccae ef3f ca9c b532 3ad1 b43f
00000170: 63a6 ae72 c0c0 d23f d527 2c52 a1e3 e13f
00000180: 33c4 30b3 03f4 cdbf 047a 951a d0e1 0040
00000190: 3235 e51b 02c4 d1bf 8b47 fb4b 9b4f f8bf
000001a0: 67d8 46a0 036f bebf a3f8 d11a 1400 bc3f
000001b0: 80e4 e726 2357 f83f c63e 80ab e271 c13f
000001c0: e432 cf12 9fcc c4bf bd33 d241 9192 1140
000001d0: b23d b989 6e00 c63f 156c 6ecc 445d b93f
000001e0: 3c17 9d15 1f25 d93f 7984 5415 184a a1bf
000001f0: e34c 2bb0 5a9a abbf fb10 c1e9 9f24 a83f
00000200: dfc2 f671 db7a 9a3f c89c 3978 1daf aa3f
00000210: 84e8 b12c 3091 ccbf 317c f016 d0a7 94bf
00000220: 66cd 20e6 fbd3 59bf 0fdc aaf5 71b4 aa3f
00000230: 4fdf f640 9165 873f baf7 1523 9703 febf
00000240: 2da2 97fe a088 0740 3150 0ded 3d76 05c0
00000250: e0f1 5826 f8a3 fdbf fbd1 0e0d 073f 0740
00000260: b53a 1d18 49a2 be3f d0bd e741 fe65 96bf
00000270: 258e 886a d0d4 c7bf 5592 3af3 6af5 0640
00000280: 3485 7e1e 728e c23f 4d2d 8512 9973 f83f
00000290: fcd9 9b58 c8bf f13f 7f39 2f70 7532 b4bf
000002a0: 6236 11fa b894 f8bf defc f8ff b834 a5bf
000002b0: ac13 83a1 ae32 ee3f 1aee 6e76 5f75 12c0
000002c0: 40b3 f8e3 2bf2 ab3f 384b 05e3 eb5d f2bf
000002d0: 6126 bce7 f2f3 e33f
