RUN_20161001/weights.npy (npy, 808 bytes, 1 tensors)

array f8 [91]
00000000: c507 3b30 9e09 a0bf 4761 f589 6825 81bf
00000010: fc4c 59e1 9849 99bf 48fc 5ff8 c342 6140
00000020: 1831 5a73 9d1e a03f 8f52 2ba7 7ede a7bf
00000030: 942c a9ca 12dc 15c0 a00b 78f2 182c 97bf
00000040: 47bf a9a6 c913 813f ca6b 421f 7478 14c0
00000050: 9450 2dd4 85f4 b33f abee df9f c17f f23f
00000060: 4ae7 c844 dad8 a83f 2a5b 2131 3961 4ac0
00000070: 28cf 2953 504b b4bf 184c 71dc b37c 70bf
00000080: 2bbc 4f84 b7af 5840 0dd6 cd4d 7d1f a63f
00000090: 1118 6797 857f f2bf 6c8f 20e8 1927 65c0
000000a0: f8dc 72f5 2803 a93f 0495 0b89 e89c b5bf
000000b0: e33c ef49 5721 af3f 65d9 50bb 9865 7240
000000c0: cef7 9e0f 2e13 a8bf d6d8 22b5 fee9 cebf
000000d0: fab0 8a53 8789 6840 ea1c 02a2 b0e3 ad3f
000000e0: 7ae6 ac25 b79c b53f e184 4bde d305 6d40
000000f0: 00f7 8146 b028 ad3f 6111 8ea9 a087 d6bf
00000100: 6dd6 fbde 2a44 a53f e565 ab23 37e1 67c0
00000110: f1ad dce4 5e1a adbf 1f25 b758 77b4 b8bf
00000120: 174f 7111 b6e7 5fc0 b4e9 73d9 20d8 a23f
00000130: 145e 69b5 d782 d63f 9646 e5c2 9742 3cc0
00000140: 1bd3 0e93 f4db e7bf 0e3e 4831 65a5 a33f
00000150: 2bbc 5a78 04e8 dfbf 3648 4c3a 2c7f 7e40
00000160: bfdb 410b 2352 e83f e2e6 0921 c8e4 efbf
00000170: 90e0 9442 9ec6 6240 ad1d cc8e 7fe0 dcbf
00000180: 8297 1c60 f183 a3bf 979e 58c7 b6f6 4bc0
00000190: e3dd d338 3d3c 8cbf be64 2a47 f6a8 debf
000001a0: 6ce9 4f70 e5de 73bf bd95 b115 4d90 5440
000001b0: b267 14cd 8e15 8a3f d967 4fa2 ed1f a63f
000001c0: a506 80f0 8004 7340 71f8 e50a 03ea 44bf
000001d0: 1c9a c5d5 f1a5 de3f c96b 1781 f62f 33c0
000001e0: d9cc f1d7 d402 a73f a82f 0cc6 f757 afbf
000001f0: 9ede 4921 a689 a03f cc35 77ea 8541 58c0
00000200: ffba 5e42 8f37 a7bf 497a 08d0 5b61 b53f
00000210: d247 6d8f d39c 2d40 dc1d 7e6a 5ea4 9d3f
00000220: c2c3 6d83 4d5e af3f 6a28 2dd0 d4b1 3540
00000230: 1612 95a1 d1e4 7140 fe36 7d33 3cce 6140
00000240: afb4 b1ad 7f2b 6dc0 d0b6 b4e4 f13d 873f
00000250: 5cef 44cb 4b1f 7040 ce93 c5d3 0a7c 6140
00000260: f45a 9f85 4cce 90bf 5748 df87 878e 7240
00000270: c77d f170 b7cf 6140 a332 9779 2ba6 803f
00000280: 4d5b c534 9dbd f73f 5dca 40a2 b80d d43f
00000290: 5558 835f bbf2 fb3f 52de 5e6c 3727 72c0
000002a0: 2c36 1036 2e0a f8bf 115b f247 14e5 1940
000002b0: cc13 0f09 ec55 78c0 c115 39c8 e6e1 0040
000002c0: e824 5590 e808 d4bf 46ed 0e27 f0f8 4240
000002d0: b354 6c4d 23c1 78c0
-0.03132337893249785 -0.00837213202491739 -0.02469481349392043 138.0864221453396 0.03148357422932885 -0.046619375139617884 -5.464915434432573 -0.02262915592110526
0.008338523291257295 -5.1176304706850235 0.07794987135031511 1.1561905140978677 0.048529454132632724 -52.75955785874096 -0.0792741969142382 -0.0040251756500593525
98.74557597910523 0.04320899557835043 -1.1561332620781324 -169.22191244468138 0.04885223385047682 -0.08442548127966992 0.060801246428690246 294.3497880132839
-0.04702133122144368 -0.24151595921075025 196.29776932800434 0.05837776162757698 0.08442253751572962 232.18211283445183 0.05695105419816393 -0.3520280509767613
0.04153570148438921 -191.03798087574174 -0.05684181731916372 -0.09650369563964432 -127.62048755708052 0.03680517820790233 0.35173599925971755 -28.26012819383194
-0.7456000206208019 0.03837124086942022 -0.4985362220131175 487.9482977847832 0.7600264758938166 -0.9966774602209763 150.20681885793283 -0.4512022871499209
-0.03811601923216214 -55.92745296313404 -0.013786772057286128 -0.4790626234985885 -0.004851242299077501 82.25470487921025 0.012736430772338856 0.04321234327626628
304.2814793587698 -0.0006382479530626773 0.4788784587493937 -19.187355106561686 0.04494347702066088 -0.061218016553623855 0.03230017811159523 -97.02379857675186
-0.045345761157809854 0.08351682499822134 14.806301576700125 0.028947329759402382 0.06126634816508371 21.6946535215615 286.3011794875214 142.44484877067583
-233.3593357535187 0.011348619262743581 257.9560043995641 139.8763216837819 -0.01641196790282158 296.90808856220013 142.49114272276185 0.008129443786765228
1.4837925015796884 0.3133374771597682 1.7467607241610683 -290.45103108461365 -1.5024854766701408 6.473710178534717 -389.3701258267363 2.1103034632130577
-0.313043728780555 37.94482887486315 -396.07111875836125
