12012016run/12012016run2007data/2yr5levelData/nami/weights.npy (npy, 488 bytes, 1 tensors)

array f8 [51]
000000 41 50 e2 4d e3 18 cf 3f 81 d4 70 f3 f3 cc a2 bf
       0.242947018651309 -0.0367199167889476
000010 9f f3 bc bc fc af a7 bf c8 b3 05 b9 0a fb 97 bf
       -0.04626455120021621 -0.02341858629499763
000020 0a 1c bc 3d 68 1e a0 3f 0a 0b 71 f5 74 2f d9 bf
       0.03148198846434276 -0.39352153748420504
000030 f4 ef 13 bb 5c 30 86 3f e0 3f 98 2d 38 d1 c0 3f
       0.010834431132472823 0.13138487078003802
000040 d8 db 3b 39 ee bd c2 3f 0d 9e 66 40 fa 7d c8 3f
       0.14642122072811392 0.19134452957699502
000050 31 a7 49 da d2 b2 e1 bf c5 07 f0 39 4e 87 d2 3f
       -0.553079058020762 0.289508396701532
000060 dd 07 7b 5c cf f6 b2 3f 51 8f d5 55 9c 54 9b 3f
       0.0740785218031585 0.0266899516476678
000070 47 53 7e 5c d9 8d c4 bf 25 4d 1e c9 7d 23 e8 bf
       -0.16057889000208034 -0.7543324401944217
000080 35 63 2e 07 40 97 ef 3f 08 e2 d3 e1 4d 27 c7 bf
       0.9872131481416547 -0.18088696982137287
000090 c7 9c e3 20 33 76 c9 bf 06 94 48 43 b0 bd d0 bf
       -0.19891966920770285 -0.2615776688638224
0000a0 f7 e5 91 8e cf 9f b4 3f 4a 4e f2 20 c0 b4 f1 3f
       0.08056351881705114 1.1066285407040533
0000b0 45 e0 2c 30 b3 0a e9 3f ad ce e7 90 29 17 e6 3f
       0.7825561467098018 0.6903274374185081
0000c0 8d ff 51 7d 71 97 df 3f 58 58 ce 6a 2c b5 e5 bf
       0.4936183666068182 -0.6783659063392049
0000d0 25 ea 1f ef 1f c7 ea 3f de dc f1 b8 91 e4 e0 3f
       0.8368072195438044 0.5279015171244301
0000e0 7d b4 a1 a6 16 99 e3 3f 76 b4 43 80 c9 89 e9 3f
       0.6124375586056342 0.7980697159924961
0000f0 ab 01 f8 16 2f 22 e3 bf ab d9 47 05 5a 7b ae bf
       -0.5979228447541137 -0.05953484835110897
000100 02 e6 14 cb 09 9f c3 3f 5b 87 9a 5e e9 fa ba 3f
       0.15329096237273637 0.10539110717448123
000110 7b d1 ca 03 43 8e 96 bf 25 13 c6 db 4f 24 11 40
       -0.02202706061025726 4.285460885967756
000120 73 2d 6e 0e 7a 58 11 c0 5b 1d df 9d 6d 8e c2 3f
       -4.33640310809584 0.14497156342097636
000130 e3 b5 02 4d c8 fb c1 3f ec 4b 29 09 1f ad c8 3f
       0.14049628982813464 0.19278324076967068
000140 3b ef 94 e5 6b a3 b4 3f ee 34 30 e6 93 ee af 3f
       0.080618613767851 0.062367078637274406
000150 dd 21 5c 4c 7b da f0 bf 94 cf 74 a5 a4 ee f5 3f
       -1.0533402426536818 1.3707624877106115
000160 e7 f0 82 c1 c9 40 d5 bf 85 f8 26 af 44 8a e2 bf
       -0.332079352356017 -0.5793784542982087
000170 6c 19 c0 93 ec 84 fe 3f f6 aa 7b af ff ad dc 3f
       1.9074521800517585 0.44812004220027235
000180 df 3b fa c4 e8 81 df 3f e5 a8 58 26 9a c5 da 3f
       0.4923040317161717 0.41831067795523175
000190 4b 30 fa 6d 96 26 de 3f
       0.47110520114870685
