12012016run/12012016run2010data/18levelData/nami/weights.npy (npy, 488 bytes, 1 tensors)

array f8 [51]
000000 15 11 6b c9 d8 b0 b0 bf 65 27 1b e8 31 3b b9 3f
       -0.06519846837460748 0.09855949322368714
000010 aa 84 9a 54 7e fb 7d bf da f4 c7 3b 0c ed 9b bf
       -0.007319920996139798 -0.02727145304560428
000020 a0 e5 b7 ae d9 e1 a9 bf 5b 1c c6 26 3f 67 d0 3f
       -0.05055122621338204 0.256301677575214
000030 39 2a 45 c6 52 30 ea 3f 65 de a3 a6 8d 79 99 3f
       0.8183988449539533 0.024877751632600104
000040 0c 16 7b 3e 6e b5 e3 3f 55 44 d6 85 ff ef d6 bf
       0.615897295029471 -0.35839832372682184
000050 7a 0e 70 c7 dc 41 f0 bf 46 67 1a c5 56 e6 eb 3f
       -1.0160796919380162 0.87186754700381
000060 44 73 ec f6 ff a7 a3 bf 1d 1f dd 9f 44 90 97 bf
       -0.03839111222462191 -0.023011276490506483
000070 db 12 be df 34 4a cd bf 9d 8b 7d 7b e8 4f e6 bf
       -0.22882710385251567 -0.6972544109270192
000080 97 6f 16 91 ff 01 e0 bf 46 c9 3b 3d 93 3d 7a 3f
       -0.5002439340346311 0.0064063788920399375
000090 68 8b 6c f5 da 53 c8 3f 2d f8 5c be 5a 3d bb 3f
       0.19005906089395386 0.10640494487321979
0000a0 41 59 27 0b b2 bf d1 bf 51 43 e0 2b bd 83 d9 3f
       -0.27732516373852795 0.3986657074429348
0000b0 c1 13 49 9f 91 7e 8d bf 11 4d d3 49 d4 d3 c5 bf
       -0.014401567147737883 -0.1705270157313881
0000c0 55 3b 75 6a de f3 f1 3f 9f 51 a0 74 97 2c d5 bf
       1.1220382841599605 -0.3308466566970995
0000d0 f4 06 38 1a 42 fa d8 3f b7 97 87 0c 73 06 93 bf
       0.39027454910693327 -0.01857929004645317
0000e0 f8 71 24 22 94 60 ce bf f4 a2 6b 5a 98 17 b3 bf
       -0.2373223463736307 -0.07457878310709615
0000f0 9d 56 db 24 7a 72 c7 3f 23 dd 22 f0 8d f5 c5 bf
       0.18318106460235564 -0.17155622697257752
000100 24 88 b5 b1 eb 47 8c 3f 52 c1 26 d0 bf 4e a9 3f
       0.013809052811385732 0.049428934249024295
000110 ae 40 6c 1a 4c 8a b3 3f f6 71 45 34 c7 31 ca bf
       0.07632899899567988 -0.20464410831745256
000120 d4 87 fc e8 ea f9 d5 bf e0 3a ae 13 e6 0c a6 3f
       -0.34337876083929797 0.04306715955964591
000130 0a fe a7 65 5e ff 90 3f 68 29 50 87 80 4b f8 3f
       0.016599154429057385 1.5184331212681972
000140 15 97 5c a7 f7 94 9f bf c8 05 36 88 b6 4e a3 3f
       -0.03084170302385932 0.037709907653162456
000150 ee b4 a7 db 9f 21 f7 3f bb 4f 02 10 34 dc bf bf
       1.4457090931203385 -0.12445378676267087
000160 87 4f 06 b6 99 bf a7 bf 83 54 73 85 84 8e f1 bf
       -0.04638367030125239 -1.0972943509016495
000170 48 3c fa 8b 88 a3 f9 3f b3 71 5c eb be 57 e5 3f
       1.6024251430387881 0.6669611546417883
000180 3d ad c0 67 c1 86 d5 bf 61 38 49 1e 74 87 f9 3f
       -0.3363498223504456 1.5955697234199067
000190 e9 76 d3 8a 7d 20 dd bf
       -0.45510805661420634
