12012016run/12012016run2007data/18levelData/nami/weights.npy (npy, 488 bytes, 1 tensors)

array f8 [51]
00000000: 2723 e772 8ae6 92bf aa80 40af fa50 ac3f
00000010: efc9 4662 9ff1 abbf 0c70 b163 53a0 923f
00000020: 9b04 5ffd 0886 abbf a379 6f81 fb58 e23f
00000030: c029 b548 f637 c63f 7498 0ba9 4c2b dfbf
00000040: 423d 1e40 95d5 e1bf 813b 48ee 6a42 dfbf
00000050: 40fb 9a7d ddde c2bf 14b3 b498 c7d4 c4bf
00000060: b726 150e 2807 cfbf 4aaf 7c08 e064 c23f
00000070: 821c 1a75 16aa cfbf 4834 f24e b082 d33f
00000080: e585 d0f4 10b6 a53f a18f d3ab 5b5c a5bf
00000090: dda9 3232 2d38 d3bf 11ee adbf 6da0 a4bf
000000a0: 8612 8ab7 bcdf aebf 3c86 386c 1f93 edbf
000000b0: 0def 34a9 075d c63f 048d 8869 4be9 a53f
000000c0: e512 1044 8481 c43f 9372 7a84 0efd adbf
000000d0: b098 76d8 8f51 cf3f f851 67a3 7491 c8bf
000000e0: 4809 90c3 f141 aa3f efc1 b480 0a3b c9bf
000000f0: b384 5625 327a bc3f 4ed9 b80f ba8e 75bf
00000100: 8a3e c22e b67f b03f 1e76 c829 37e9 bbbf
00000110: 4a7f 39a6 766c b03f 8b5a 14cd 5160 dd3f
00000120: 6713 c220 ad46 c0bf 7cef b426 32db c93f
00000130: 7d6b f155 00c8 ddbf 1e08 1ff5 89e9 c83f
00000140: fac5 c7c5 9e3c 2340 ff6a 1a11 02b8 b43f
00000150: ff80 3acd defe 1540 6aa2 de90 251c 2440
00000160: 4589 0660 e0c7 15c0 119f 6578 31d7 0740
00000170: 9e55 232e 90d3 dbbf ec78 aceb 6084 eabf
00000180: efbc 98dd 53e1 07c0 4e2e 3b23 0f0f ebbf
00000190: 7886 917d 737b f53f
-0.018457568419566386 0.05530532254511063 -0.05457780909218345 0.018189719161782178 -0.0537569817820522 0.5733621147190217 0.1735828261392509 -0.4870177889664611
-0.5573221447283816 -0.4884288145994376 -0.14742630608631124 -0.1627435203203268 -0.24240589797618892 0.14370346464544986 -0.24737816541548702 0.3048516055067165
0.04240468014200952 -0.04172026131143914 -0.30030374433650114 -0.04028647389256091 -0.06030072918386957 -0.9242093194663492 0.17471404802369542 0.04279552138566525
0.16020253489855132 -0.05857129447142486 0.24467657155509448 -0.19193895319644105 0.051284365770714546 -0.19711428913571136 0.11123956119128557 -0.00526306801071137
0.06444872514316038 -0.10902733583540011 0.06415502126901376 0.4590038779000813 -0.12715686893002529 0.2020018280981012 -0.46533211129069924 0.1946270415192552
9.618398838650126 0.08093274037893748 5.498896795936388 10.054974105050139 -5.445191860579432 2.98007482586025 -0.434787793213525 -0.8286594965936991
-2.985023242210097 -0.8455882728680508 1.3426394372003454
