12012016run/12012016run2006data/18levelData/nami/weights.npy (npy, 488 bytes, 1 tensors)

array f8 [51]
0.11064842144574165 0.0032137299223367753 0.08399932422105155 0.0061053036331597905 -0.09819586983870139 0.3493063642465275 0.296570265096476 0.4864235951762985
0.4507358701060822 -0.2368366750183863 0.4020556992134231 -0.026346838898334255 0.3230760097139651 -0.043061426163563225 -0.5830038760039369 0.04759269904560696
0.008448990292116718 -0.028055334590833966 0.04375090247982511 0.11561145000838215 -0.15582234754998922 -0.10828287249117426 -1.0530054529952892 -0.12433406167619393
-0.6875280338430476 0.20094935426614882 -0.03914707733752781 0.015308998643214243 -0.10345892380659359 -0.4450774496192978 -0.23593538014495108 -0.0023535340173223003
-0.16151169884979868 -0.0024479399783537536 0.24082422621537308 1.8603546835622082 -0.1527847120952147 -2.0502296689529356 -0.042512827191231145 0.23719477913290918
0.04358634336790375 0.7050635793889042 -0.06674806571877318 -0.4958926073933685 0.07753111347553379 0.5392178865294946 0.10743623330167089 1.6103416581672874
-0.10557235803612357 2.2939467171261048 0.41600238407276935
00000000: fba6 7677 7453 bc3f a182 441d ae53 6a3f
00000010: 545f 6ace fa80 b53f 2b32 fcf6 df01 793f
00000020: 153b 8f51 5d23 b9bf d04d ae14 095b d63f
00000030: ea8b 63d9 01fb d23f 8c3c 526e 9021 df3f
00000040: b057 4f43 dbd8 dc3f be42 d906 aa50 cebf
00000050: 32b1 d2d3 47bb d93f 2970 af6d aafa 9abf
00000060: 80fe f5ff 46ad d43f 2fe9 2eb2 250c a6bf
00000070: ca19 9cbe f7a7 e2bf f5c6 dbfb 115e a83f
00000080: e530 e947 b44d 813f 9c12 2fa2 89ba 9cbf
00000090: e985 a4ae 8466 a63f 8942 d444 b698 bd3f
000000a0: 7b48 5b97 fcf1 c3bf 3508 1124 6db8 bbbf
000000b0: adfd f13e 1cd9 f0bf f497 ad68 5bd4 bfbf
000000c0: de0c 8eca 3a00 e6bf cdda 5c5c b5b8 c93f
000000d0: c71d ccf1 150b a4bf 8c91 0e04 535a 8f3f
000000e0: 778a 3ab6 487c babf 8153 9320 267c dcbf
000000f0: f08f d86a 2133 cebf ff30 4df4 b747 63bf
00000100: c99a 3d54 6aac c4bf 9c86 c9c4 b30d 64bf
00000110: f2fa d607 54d3 ce3f 06c3 cd45 03c4 fd3f
00000120: 6b8c e30e 738e c3bf bc88 0bd0 de66 00c0
00000130: dcc7 e4c4 3dc4 a5bf 6732 9405 665c ce3f
00000140: ba7e a2fe f250 a63f f26e e27e e18f e63f
00000150: 0459 55b7 6616 b1bf b84a c558 b4bc dfbf
00000160: 1ac5 cc3c 14d9 b33f 55ff 81de 4541 e13f
00000170: 6ba4 6fe4 f080 bb3f 4670 539d f5c3 f93f
00000180: eb72 2041 ca06 bbbf e195 86bc 005a 0240
00000190: 08a3 a976 c89f da3f
