10032016run/binaryData3/weights.npy (npy, 808 bytes, 1 tensors)

array f8 [91]
000000 57 af 57 be 97 0c 25 c0 f3 ff 1e 1c 44 48 94 bf
       -10.52459521122334 -0.019806923118949226
000010 28 9e 28 cf e5 4c d8 3f 19 67 0c 28 7e 13 b2 3f
       0.3796934626611539 0.07060993650193516
000020 3c d5 4e b0 ec ef 04 40 ee 1c e7 d6 be 55 c6 bf
       2.6171506666238695 -0.17449174397754724
000030 88 aa 6d 55 6a b4 99 bf 65 2d 83 6f 40 76 9a bf
       -0.02510229250348542 -0.025841719442536788
000040 66 18 ac 50 d9 ec d6 3f 0f b6 d1 8b 36 f3 ba bf
       0.3582061088385501 -0.10527363694719603
000050 11 b8 d6 ee 72 60 36 c0 72 36 e3 3d e1 bf cc bf
       -22.376753737851747 -0.2246057083306599
000060 d6 dc 7b 9d 44 12 3a c0 6d 73 d4 b4 4a ae ab bf
       -26.071359484424498 -0.054064116071663594
000070 fd e4 4b 3a 1c cf a4 bf 14 33 df a3 03 96 ad bf
       -0.04064262591959709 -0.05778514266385151
000080 bb 46 fe 27 39 11 8b bf 17 71 1a 5c 46 ed 7e bf
       -0.013216444523809092 -0.0075505016735884145
000090 3e 51 75 b5 e1 ff f6 bf 02 29 0e f4 37 73 53 bf
       -1.4374711120809276 -0.0011871382159563408
0000a0 9f 33 e3 0a fa 86 27 40 5e 36 36 77 e8 17 f0 bf
       11.763626423105789 -1.0058369309148456
0000b0 49 01 67 81 e0 6d 1d 40 66 4f a1 d9 69 3a 85 bf
       7.357301732932975 -0.010365321115535852
0000c0 5f c6 b3 f5 53 35 80 bf 87 11 af 07 9c 3b ce bf
       -0.007914215026605107 -0.23619413733662162
0000d0 90 79 24 98 4a bf 72 3f b7 5e 29 39 73 6b 56 3f
       0.00457696092988015 0.0013683915355126427
0000e0 30 d7 fa e5 2a 81 d4 bf 0f 6b 2a ac 96 60 87 bf
       -0.32038376292199455 -0.011414696816520768
0000f0 71 28 a6 f4 47 4a 3c c0 1a 04 86 c7 b2 cf d1 3f
       -28.29016045624343 0.2783019016715699
000100 fd 2d d2 12 ff 72 43 40 b2 36 03 c4 e6 4a c1 3f
       38.89840922606161 0.1350983101933046
000110 ea e7 df 86 5e 89 b9 bf ba 95 57 ce 15 f5 df bf
       -0.09975233834111888 -0.4993338122424934
000120 0a 3d 58 fc 03 be 7d 3f 6a ca da 52 8b 40 76 3f
       0.007261291093086495 0.005432647927295345
000130 ff fb 0e c4 37 a9 f3 bf 00 c9 1d d4 fe 44 88 3f
       -1.228812948087352 0.011850348327901106
000140 e6 ca 0a de 59 69 50 c0 65 46 64 43 ac ea 80 bf
       -65.64611006788218 -0.008260103041297382
000150 d2 d3 89 7c 4c 7c 50 40 8e 6a 78 ca 69 13 cc bf
       65.9421683641406 -0.2193424452423937
000160 af 0d 7c c3 f8 d9 e0 3f da 02 8d e4 78 05 0e 40
       0.5266078775461461 3.752671990922278
000170 3e e8 55 e8 8e 8c b2 3f 82 dc 55 8c ce a4 a5 3f
       0.07245724842314957 0.042273001318727146
000180 9d 7b 75 90 83 47 c4 bf bd cd a5 fa f3 56 8b 3f
       -0.1584324317327316 0.013349443518314236
000190 c1 76 1c bd e8 0c 23 40 0e 11 8e fc 52 89 f3 bf
       9.525213155483813 -1.221026407759442
0001a0 dd 72 7e aa 8e cd 37 40 34 aa 30 3d e9 69 d9 3f
       23.802958160277615 0.39708929992289943
0001b0 df 34 1a 9c b1 60 d3 bf 90 f3 ce dd c0 03 e1 3f
       -0.3027767204701614 0.5317081768222227
0001c0 7c 1a 38 a7 8c 0f 9b bf 5d 7f 80 10 01 f6 8c bf
       -0.026426503854987335 -0.014141090694522235
0001d0 1e 2b cb 82 27 28 00 40 4f 78 ae be b7 cc 7c 3f
       2.0196066110851367 0.007031171563452856
0001e0 d4 cf 9c 31 64 a5 56 40 7d d3 5c 3a 6e 3f dd bf
       90.58424034417777 -0.45699649524186
0001f0 a7 1a 4c ba 0d da ed bf 80 20 39 b1 3e f1 12 c0
       -0.9328678740137847 -4.735590714561226
000200 db b8 ab e6 4e c5 d3 bf cf cf 67 d9 ee 77 b2 bf
       -0.3089177372593334 -0.07214253242255995
000210 32 94 23 8d 0a ce 8f bf f9 db 08 0a 28 5c 90 bf
       -0.01552971118185029 -0.015976548778976227
000220 18 95 e3 82 b7 a0 fd 3f b2 97 20 57 2f aa b0 bf
       1.851737509999401 -0.0650968158448382
000230 47 e9 e0 16 2c 28 90 bf ac 47 78 14 ce f8 9c bf
       -0.015778244873424965 -0.02829286575258265
000240 4e 18 32 d3 54 82 89 bf e7 f8 03 ab ee 18 52 40
       -0.012455618567639128 72.389567140464
000250 11 19 16 2b 27 d1 b2 3f b8 e7 f5 55 f2 19 a6 bf
       0.07350392152702435 -0.043166707032426144
000260 66 07 51 4f ca 26 5c 40 09 b0 ce 5f 61 e2 68 c0
       112.6060980120943 -199.07438650482825
000270 a4 69 6e ec f0 38 91 3f c3 33 a5 8e 09 96 36 40
       0.01681877558767443 22.586083331425254
000280 56 6a e3 13 70 13 58 40 1d f7 db d5 f7 80 fa bf
       96.30371567925008 -1.6564863542439021
000290 1c d9 ff b8 74 11 54 c0 7d 8f af 0a 7c 6a 25 c0
       -80.27274918542065 -10.707977613383031
0002a0 bb ba 51 75 63 15 c4 3f 4f 66 2d 87 2e 44 cb 3f
       0.15690272549132608 0.2130182418866746
0002b0 a5 16 33 42 00 82 c1 bf 97 57 d5 15 a1 90 c1 bf
       -0.13677981598282432 -0.13722623411257182
0002c0 aa 68 6c f2 74 f3 c2 3f 3d b8 ff 4c 99 b6 91 3f
       0.14805471264918896 0.017298121761932562
0002d0 4b f5 9c 7c 2b ab 5b 40
       110.67452922180125
