2yrdata/weights.npy (npy, 888 bytes, 1 tensors)

array f8 [101]
000000 7e b4 26 b8 62 d7 1d 40 a0 c3 6f de e4 31 02 40
       7.460337521898621 2.274362314019939
000010 cf 87 c8 89 64 b6 14 c0 e8 f3 2d 3d 84 3e f5 bf
       -5.1781178978580575 -1.3277628316711745
000020 fa 93 a5 14 fe cf 44 40 88 44 b5 20 22 fa eb bf
       41.62494142613282 -0.8742838515119198
000030 5b 1d eb a1 bf 88 12 40 7b 34 f1 41 3b 32 11 40
       4.633543519950162 4.299054174754128
000040 28 a5 58 5d 16 fa 48 c0 e3 43 7b 2b 37 46 0f c0
       -49.95380751446129 -3.9092849156372593
000050 d8 59 be de ef 08 0a c0 8f f4 97 d8 a2 3d e4 3f
       -3.2543637658920765 0.6325239401191015
000060 76 7a 1a 84 81 bf ea bf fb 90 a6 9e 43 29 e6 3f
       -0.8358771877427233 0.6925371264119627
000070 e9 29 bb c6 35 11 5c c0 95 44 69 9b 6f 8b c2 3f
       -112.2689072444697 0.14488024795949586
000080 5f 4b f0 04 b4 ef a1 bf 45 7e b8 d2 90 58 a8 3f
       -0.03503191528593307 0.047550702784289224
000090 5e ed b7 37 6b f0 15 40 1f 29 84 61 6c cd cf bf
       5.4847840028772605 -0.24845652352844014
0000a0 b7 74 41 8d 94 99 14 c0 90 82 c9 a5 b8 2e 95 3f
       -5.149980742569077 0.02068604003796054
0000b0 e1 80 17 66 01 d3 e3 bf af d8 cf 4b 55 13 d5 bf
       -0.6195075029354734 -0.3293050041533076
0000c0 cc 53 cb 3b ce 03 44 c0 c5 60 ff 2f be 90 dd bf
       -40.0297312491235 -0.4619594067312501
0000d0 a7 a8 8c a6 7f d2 b6 bf 41 c6 ab 48 8c b9 aa bf
       -0.08914945427082675 -0.052196868773432666
0000e0 f6 09 d8 70 fc 58 45 c0 cf 37 6d 10 40 8a c3 3f
       -42.69520388172889 0.15265656282502824
0000f0 c8 6b 70 22 55 15 0b 40 5f 9f 46 95 03 a4 dd 3f
       3.3854162874754117 0.46313561990472424
000100 33 52 8b 2f 44 94 f6 bf bf ff a4 2f 23 0a eb bf
       -1.4111978394695484 -0.8449874811703849
000110 fe 22 e4 9e 68 84 2b 40 00 f4 ee 9e ed d8 e1 bf
       13.758610692356793 -0.5577304939430405
000120 d2 c1 2e e1 5d 7f d4 3f 4c 21 b1 60 c7 b3 d5 3f
       0.3202738474892871 0.3390978283173538
000130 be 19 c6 ce cc 21 3c 40 d8 b3 25 3e dc f6 d8 3f
       28.132031367649454 0.3900671584040629
000140 3f 67 bf bc 94 f8 23 40 db 9f 9c ca 63 11 ff bf
       9.985509775509511 -1.94174555917015
000150 bd 16 0e 8c 71 a2 f5 3f c3 df f5 90 86 46 df bf
       1.352159068193415 -0.488679544032035
000160 3e 23 b0 f7 47 59 59 c0 45 4c f6 59 b0 85 e1 3f
       -101.39501754952377 0.5475694424698153
000170 bc a9 25 ae 43 d1 09 40 53 08 bf 3d ad 92 07 40
       3.2271798711055606 2.946619493858671
000180 00 36 9f eb 73 3e 4d 40 bb e7 d2 ec 09 59 01 c0
       58.48791260980579 -2.1684759618628653
000190 3d 4e db 1e 1e 6b 18 40 22 ae 5d 15 48 bb f4 bf
       6.104607088218072 -1.295723041020104
0001a0 f5 f4 f9 e8 76 19 fe 3f 1c d6 15 ef 3f a3 e5 bf
       1.8812169170990363 -0.6761779470095379
0001b0 63 48 5f 08 a3 f9 51 40 64 80 8c cc ac 97 d3 3f
       71.90057572655637 0.30613250709030226
0001c0 6d db 13 b4 21 23 ea 3f c7 84 97 40 a2 d3 e7 3f
       0.8167885319843272 0.7445842038688618
0001d0 3c d5 92 9e a8 d5 2b c0 07 28 4c d7 9c 6b da bf
       -13.917302089141792 -0.4128181555284986
0001e0 b0 8a d7 ca 30 a3 b6 3f ea de eb 0f bb 60 be 3f
       0.08842759086796081 0.11866349352555586
0001f0 fb 49 df d9 8d 9e b2 bf 02 06 9d 75 5a e6 b4 3f
       -0.07273184365411815 0.0816399132864021
000200 85 c9 35 f8 cf 17 ef 3f ce 71 72 56 d0 bd b6 3f
       0.9716567848065983 0.08883382902644785
000210 23 74 ec 5b 6d 2a a2 bf 22 19 e7 01 46 4e a0 bf
       -0.03547994372477372 -0.03184717915751124
000220 20 38 ff d0 0d 2c f6 bf 3b 22 b4 bb 57 bb 94 bf
       -1.385755363840424 -0.020245905715485995
000230 c6 b3 ea 2b 6d 3e 30 c0 ac 9f 65 28 60 eb e0 bf
       -16.24385332565341 -0.5287323750499033
000240 92 67 ea 2f c9 fd f1 3f 94 ea 6e 6d 27 64 b6 3f
       1.1244594451622771 0.0874657289668142
000250 37 9d 65 f4 34 85 12 40 72 78 a3 97 2f cc aa bf
       4.630084818555864 -0.05233906484657859
000260 a4 7c d5 8c 0c 89 20 c0 81 cc 18 59 41 4d 20 c0
       -8.267673874912653 -8.150889190938189
000270 3b 09 09 47 33 6b cf 3f 31 a5 de 5f 88 c4 80 3f
       0.24545899361152998 0.008187356401168163
000280 6e b3 e3 42 11 68 15 c0 cd c5 da 6b 67 75 39 40
       -5.351628346584091 25.458609333907408
000290 6d 31 1c 9e e7 b2 31 40 47 a5 47 f4 3c c1 25 c0
       17.698846704371523 -10.877418168779185
0002a0 2a c8 a2 6b e0 ef 09 40 1e 92 68 86 44 8d 31 40
       3.2421272667934504 17.55182685902593
0002b0 bd 22 70 17 02 08 58 40 95 dc 6e e3 5b af 58 c0
       96.12512765837432 -98.73998342348416
0002c0 c7 4b 2a f2 ba 0c 10 c0 af 9b 05 9a 15 1e 43 40
       -4.012431892234367 38.23503422998271
0002d0 66 4e 79 f1 6d a2 24 c0 f3 13 ed 5e d0 9d 11 40
       -10.317245050485507 4.404115184040154
0002e0 72 6f ae 1c 76 47 23 c0 17 08 9a 32 78 2d dc bf
       -9.63957299832666 -0.4402752393872346
0002f0 88 1d 94 94 b6 e5 68 40 8d 0e f5 12 1e 14 f9 3f
       199.17853764466076 1.567411493350764
000300 9a b4 c8 43 a2 51 05 c0 60 8c bd 1c ed 47 04 c0
       -2.6648602767587137 -2.535120224508816
000310 aa e2 6d 16 90 97 4f c0 8f ac d8 e3 45 fe 1c 40
       -63.18408470502375 7.248313484287009
000320 2d 07 a6 f0 b5 92 47 40
       47.14617736918294
