11292016run/finalRun/nami/weights.npy (npy, 488 bytes, 1 tensors)

array f8 [51]
00000000: e0e3 1b9b e5cd 97bf 238b bfae 2199 85bf
00000010: 8a02 eaa8 53c8 b1bf b4fd a052 8e17 8ebf
00000020: bee4 34f5 27ea c23f 92e5 7624 55ab edbf
00000030: e9f0 9c3b cc2e e53f 0d6f 4fc7 5766 f0bf
00000040: 9f94 3c8b 2256 ad3f 4752 0c91 a9d7 e93f
00000050: 6121 67ca 4be6 f4bf 5486 72d4 984c c0bf
00000060: bc54 8812 c742 e6bf e549 af11 9d4e babf
00000070: 92a8 128c 727e e13f e2e4 f37d a4f2 ecbf
00000080: b7dd d9a5 d34e c73f 55b3 afac 0988 ce3f
00000090: 7ac2 4065 d38a 8d3f c200 460b 1923 bcbf
000000a0: 4b9a 54e0 c0a2 0240 2226 8fa2 2cdb c6bf
000000b0: 49d3 f254 fce8 e7bf 5d07 14c5 fc9d bcbf
000000c0: e391 805f cba4 13c0 b41c d09e a094 dabf
000000d0: cf20 ee91 9ab7 d4bf aa51 3927 c15c dcbf
000000e0: 5792 9656 6894 afbf 45fd 8687 fc1b d1bf
000000f0: 0275 7399 738a 943f 785f fce9 9fa4 a63f
00000100: 6d10 9451 a8e4 c33f 2512 7f29 a292 a03f
00000110: 1c8d ff7a 7a73 c1bf 658f ceb6 93b6 0ec0
00000120: d08c 1b61 7f09 c13f d7e4 5faa ed10 b23f
00000130: afe6 f5f4 29c4 9abf 0c98 76f1 7c56 19c0
00000140: 547e ebb9 cc82 94bf 8a25 dcfd 67ea b9bf
00000150: e283 0246 45d0 a2bf 70f9 5184 1ec7 e83f
00000160: 0cca d404 a62e 9dbf 7ea6 11f5 e21d 00c0
00000170: c527 0a32 42f1 c9bf ca30 6d53 2128 f8bf
00000180: e7f3 840e f47e f73f fb9b 4892 05ef 1540
00000190: c21f 979c 4c45 dabf
-0.02324637183389544 -0.010545981545822486 -0.06946299432639527 -0.014693366905816109 0.14777087662677063 -0.9271646225162604 0.6619626201932337 -1.0249860559042105
0.05729778241792726 0.8075759728404329 -1.3062246233331154 -0.12733755467802388 -0.6956515657390336 -0.10276204759364978 0.5466854797171143 -0.9046194515241519
0.1820931014842537 0.23852654392194475 0.014424945380683275 -0.10991055035811129 2.3294694448298165 -0.1785636705156302 -0.7471906336928466 -0.11178569613914875
-4.910932056638987 -0.4153214980037305 -0.32370628596301015 -0.4431612856908723 -0.06167913491234305 -0.2673331569203195 0.02005940078821756 0.04422473651192055
0.15541557296103595 0.032368724408602646 -0.1363366222932222 -3.8391489297663832 0.13310234300215606 0.07057080659423619 -0.02613893087025215 -6.334460995543861
-0.02003021130337708 -0.10123300502541191 -0.036745228572961044 0.7743065437678478 -0.028498262448190245 -2.014593042946955 -0.2026751274427722 -1.5097974070404683
1.4684944693719844 5.48341969078228 -0.41047969142936946
