12212016run/delhiData/nami/weights.npy (npy, 488 bytes, 1 tensors)

array f8 [51]
000000 5f 23 33 52 f4 b0 a4 3f eb 38 9a 84 a3 c9 a4 3f
       0.040412554773473934 0.040600881516285124
000010 ff 58 15 e0 2e da a9 bf 7c fe fa f8 a2 f0 90 3f
       -0.050492730001382206 0.016542955824432756
000020 45 09 83 e4 33 1a a5 3f a0 56 21 84 45 65 c7 bf
       0.04121553577853602 -0.1827780623595361
000030 bd 7d d7 b3 9d 29 c9 bf 4a 26 d8 e1 f8 bb c3 bf
       -0.19658252030693105 -0.154173956180147
000040 c0 2f fa d6 08 73 e2 3f da 72 20 90 f5 90 cb bf
       0.5765423010611741 -0.21536130464018904
000050 c5 6d fc b8 94 84 ad 3f 73 e3 e7 2a f3 0a d3 3f
       0.05765213735704892 0.29754332723637517
000060 83 31 22 e9 09 21 dd bf ed 93 e6 0e 9b 75 c5 bf
       -0.4551415230460167 -0.16765154101918203
000070 46 ef 54 c2 3b a8 bb bf 8d ef b7 1b 63 09 c4 3f
       -0.10803578848293424 0.15653647283022246
000080 df 97 0c f2 87 dd f2 bf 53 5b 22 9a 73 d3 e8 bf
       -1.179084725861223 -0.7758119593080245
000090 f1 1b 15 a3 9a 58 f1 bf 9b a6 f8 21 07 42 d5 3f
       -1.0841318483742237 0.332155020880785
0000a0 e1 02 45 29 57 27 df bf 40 68 b8 18 b3 56 91 bf
       -0.48677615194541884 -0.01693229521161066
0000b0 37 ea 60 33 8b 32 f0 3f d5 16 fb 5f be 0a f0 3f
       1.0123397833800831 1.0026229619265241
0000c0 84 7f b2 cd 3f a2 d4 bf b5 cf fd 18 3d af d2 3f
       -0.32240290725348353 0.2919457191521773
0000d0 35 c3 0c e7 31 5a 04 40 0f b7 4b ce 8b 1c c2 bf
       2.544040494038564 -0.14149615834269766
0000e0 10 82 51 76 5e 34 f4 3f 12 9e 31 e2 f4 7b de bf
       1.2627853986560957 -0.4763157090114599
0000f0 d6 cd 47 c8 88 5f 96 3f 2b aa 39 a9 b5 df c9 3f
       0.02184880945601527 0.20213957560493276
000100 54 56 63 5a 98 64 b0 3f 3d 79 ad e1 54 00 c9 3f
       0.06403495985736046 0.19532261866965853
000110 b1 af df e1 bc 41 82 bf b2 63 e9 b3 bb 96 db bf
       -0.008914447444077074 -0.43107502526759867
000120 10 78 50 c2 25 dc d6 3f 8d ff 07 b9 f9 eb ed 3f
       0.35718673683175073 0.9350556005374401
000130 94 47 21 a6 61 41 da 3f ab 12 a2 35 8d 1e e6 bf
       0.4102405664790407 -0.6912294433137353
000140 48 7e 0f f9 6e 24 c1 3f 89 59 9f c1 78 f4 a4 bf
       0.13392436181219325 -0.04092767108493251
000150 8f 5b 1a 6a 89 80 a8 3f aa c8 e4 9f d1 6e a8 bf
       0.0478556577701773 -0.047720480697891546
000160 8c d3 d8 25 9c e5 b8 bf 5d d8 c2 7d 63 3f dd bf
       -0.0972535698318337 -0.4569939354072455
000170 ac 38 7a fb 74 0d 04 c0 78 88 50 46 9b 87 f3 bf
       -2.5065707823442462 -1.2206070658362744
000180 9e 51 d1 9c e7 89 e2 3f ba c8 50 5c 44 5e f6 bf
       0.579334074291683 -1.3980144125057863
000190 22 6e a8 b3 67 dc e2 3f
       0.5894049176162677
