sansPBLH/weights.npy (npy, 408 bytes, 1 tensors)

array f8 [41]
00000000: 56f9 a18b 73f6 b53f b0cf 8c67 ed1e 2040
00000010: 1624 c146 802c 0340 cb4b ca4a c1fd 13c0
00000020: a0c0 7338 af07 5040 d8cc 2840 23cc cfbf
00000030: 1bcf e3e2 56cf 0ec0 166b ffb8 9152 ac3f
00000040: 0241 b40f faa2 ebbf 3268 92a6 9ee0 e63f
00000050: d486 dfb0 8dba c8bf 7226 0479 652e 08c0
00000060: ff89 ee0e 5443 cb3f 8d3b 7ecc 903d e3bf
00000070: 135c fbfe 39c2 f83f 70e1 ece9 fa8c e5bf
00000080: 0cc4 3c88 8222 13c0 2e90 423e 04e0 eb3f
00000090: e401 af35 8b6e db3f b143 c66e c2f9 2440
000000a0: b909 e7e2 210f dc3f ae20 48b6 902c 2a40
000000b0: 25e4 2327 cded 01c0 e053 e54d 1cb0 fabf
000000c0: 6640 bce4 9a4e 1840 fa30 9b09 a9aa c5bf
000000d0: 1b95 5a6e 4edc 42c0 eef6 80bd b72c c5bf
000000e0: 35f5 7394 d94b e03f 0571 de2d ecc0 37c0
000000f0: a050 9c2e 813a 3440 e313 967c 70c1 25c0
00000100: effa d22b ff6b 3140 0bdf 9ae3 630a 3940
00000110: c1cc 40a8 f4f5 2a40 d9b3 f1c1 b733 e43f
00000120: 1dbe 03a1 c322 2dc0 002c dc81 0a17 0f40
00000130: 1cd7 d9ae 4ef4 2240 e36e e185 7ee0 5bc0
00000140: 211c cdca 6673 5d40
0.0857917991542981 8.060405002535703 2.3967290427867836 -4.997807663533375 64.12006961158704 -0.24841728813917174 -3.8512399411937515 0.05531745322487873
-0.863644629165748 0.7149194005353421 -0.19319316040405587 -3.0226544813529523 0.2129921982678553 -0.6012653345113549 1.5474185905675355 -0.6734594887594039
-4.783701065739489 0.8710957733169431 0.42862205736676473 10.487811528875541 0.4384236064762735 13.087041565231939 -2.241113954336941 -1.6679957430653687
6.076762746801341 -0.16927063912442702 -37.72114352629634 -0.16542717698205628 0.5092590236160165 -23.75360380821896 20.22853366199763 -10.877811330146818
17.42186235333332 25.040586686430327 13.480382211599478 0.6313132083865823 -14.567898780543198 3.88625050976907 9.477162803737478 -111.5077223493095
117.80314893751394
