12012016run/12012016run2009data/18levelData/nami/weights.npy (npy, 488 bytes, 1 tensors)

array f8 [51]
0.026758186010927547 0.03681652790407791 0.006718231473112765 -0.16471100870718405 -0.03595096879759205 0.3247626080687807 0.3345397480577787 0.7276700534111396
0.5308524645362079 -0.33089625027082953 -0.022741982951662482 0.10048069791414088 -0.02161199610141598 0.29868246019789896 -0.04778983224321002 0.006740923120644407
-0.03273400320690165 0.1548807488127205 -0.9518499134350878 0.015454951653358704 -0.7557736972641079 -0.4870188325489254 -0.4467760412054418 -4.28278239236
0.6344018408516731 0.05993475720736102 0.16920847920063187 -0.3024290086697568 -0.24453201219071424 -0.13379067846643802 0.009518742895350613 -0.01811131496249983
0.054203494685961445 0.20899558135413573 0.010046344175331495 -0.24831208630059232 -0.1916921330534097 -0.09511590396556846 -5.535959913951191 0.22728223557209812
1.1363250858925766 1.4023013208564867 -0.09805784649165944 -0.027549436302220186 2.3286153400090326 0.6287148649063273 0.9679387117768432 -0.1042606236246453
4.970801012885697 -0.8213848541169105 0.48540109797051273
00000000: eed4 4477 7f66 9b3f 18bf 99ae 9dd9 a23f
00000010: 6373 6c87 9384 7b3f a521 d815 4015 c5bf
00000020: 7c87 7d56 2a68 a2bf fd9e 271b e9c8 d43f
00000030: ffb1 4767 1969 d53f cabd 35b5 1249 e73f
00000040: 6fe3 c54e befc e03f 4910 5277 672d d5bf
00000050: 5525 18a4 ac49 97bf 44a5 6b5f 1ab9 b93f
00000060: 68d3 d381 7421 96bf 4315 9c09 9d1d d33f
00000070: 65bf 21ad e877 a8bf 507b 91c5 5e9c 7b3f
00000080: 5d4a 7be2 82c2 a0bf bb1e 77e3 21d3 c33f
00000090: a9ee 1cf3 8d75 eebf a5ab 4c7f d8a6 8f3f
000000a0: a5a4 1d52 4c2f e8bf ea5b 9509 512b dfbf
000000b0: 3447 6789 fa97 dcbf 8a48 1cb5 9121 11c0
000000c0: 3f5d df16 054d e43f 88d9 32bc c4af ae3f
000000d0: b0b1 2f9a 9fa8 c53f a54a 6633 ff5a d3bf
000000e0: 9293 9731 d34c cfbf c1f1 428e 0d20 c1bf
000000f0: 4afc 790b 907e 833f fb53 cec5 c58b 92bf
00000100: 549e 027a 8fc0 ab3f af56 7601 5ec0 ca3f
00000110: 5655 6b7d 2d93 843f d068 eec0 b0c8 cfbf
00000120: 3cb4 2e29 5e89 c8bf 6091 dc10 8459 b8bf
00000130: a38c f9ac d224 16c0 1339 5f94 9517 cd3f
00000140: 3387 9836 632e f23f 9c75 8382 d36f f63f
00000150: ec40 ccab 511a b9bf 83dc c35f eb35 9cbf
00000160: f66b 5214 01a1 0240 f703 e9a2 6e1e e43f
00000170: 2aa5 f39a 5af9 ee3f 8279 ba00 d3b0 babf
00000180: 2b12 25a9 19e2 1340 5f94 bbe3 c848 eabf
00000190: 3b74 4ec4 cf10 df3f
