10252016run/6yrdata/weights.npy (npy, 888 bytes, 1 tensors)

array f8 [101]
0	0x3f7074418d0537cb	0.004017120416689178
1	0xbfb9873a7e0fc2fa	-0.09971967294383069
2	0x3fd134d362435d93	0.2688492259598771
3	0xbfc1e34b30833144	-0.13974895352147076
4	0x3fabc8302b322045	0.05426168944637814
5	0x4009fd2891989528	3.2486125349702384
6	0xbfbfe728b29baffa	-0.12462095604467996
7	0xbfea6e250f6a1080	-0.8259454060612512
8	0x3fdcfa471bb98a29	0.4527757426023152
9	0xbfe0c65902422a3c	-0.524212364588784
10	0xbff308dfdccf3e1f	-1.1896666169522019
11	0x40108a711ceb2dfb	4.135197116712784
12	0xbfebedafa7ece162	-0.8727644233504572
13	0xbfa302129f2916b7	-0.03712518875958664
14	0x400699ca1528dd4a	2.8250924733253315
15	0x401bf71fda0c179e	6.9913324422722365
16	0xbff67cddc4ac576d	-1.4054849321887233
17	0x400b08fdb1f92b76	3.379390135208662
18	0xbfebfe45d14e63c2	-0.8747891510021122
19	0x402d20a55a64c94c	14.563761544039743
20	0xbfe2529c5da6196b	-0.57258432665621
21	0xc00933e7a2b52902	-3.1503441535506918
22	0x3ffde4d1c0f8b53f	1.8683640993070438
23	0x3fc2365d962f37b3	0.1422841056177596
24	0x4001eb352d1d1579	2.239847519350118
25	0x4024f6ef05127f95	10.482292326458074
26	0x3fd079199b9da58b	0.2573913592992418
27	0x40169729d1743c3a	5.647620461196363
28	0x4023a4bc945daf4f	9.821751247821934
29	0x402ab98012ae2e2e	13.362305244219069
30	0x3fd87bb69e1527aa	0.3825508636260745
31	0x3fd5e7fb97efba71	0.3422841056589397
32	0xbfb2a86fa147f18f	-0.07288263022923601
33	0xbfd2f4515aaa1943	-0.29616197446775433
34	0x3ff124583eb128e6	1.071373219385856
35	0xc033cdd8d58fd2d2	-19.80408987771336
36	0xbfd0dae51a51033a	-0.26336028642622333
37	0x400b381e84a66e6d	3.402401958779413
38	0x3fe9d09a4cf02dea	0.8067142012309294
39	0x402231206faf34d6	9.095950594079493
40	0xbfeff3cb78d739d3	-0.9985101089640075
41	0xc017242662ff4208	-5.785302683667858
42	0x3fff2047301f337d	1.9453803901444353
43	0x4000d08e8dcbc8ec	2.1018343999686433
44	0xc033c3a004cd7c99	-19.764160442512182
45	0x4032e20c14b2a4c0	18.88299683915534
46	0x3fbbb599dcf48ddf	0.10823976177612547
47	0xc027588f655573a9	-11.672969023400428
48	0xc0117f79c79f42ac	-4.374487990470396
49	0xc02e88bc65391a72	-15.267062342854135
50	0xbfd79ed16e8395fc	-0.36906848709472206
51	0xc011a471ea9708f1	-4.410590806454125
52	0x3fef03b6f8293c6c	0.9692034575363215
53	0xbfe2bbbda776c961	-0.5854175825864268
54	0xc00ab328a0773999	-3.337479833258112
55	0x402676a02a1c9324	11.231690708149081
56	0x3fced069da0bb9ce	0.24073527476089257
57	0x3ff775d9bd20337b	1.4662721050001142
58	0xbff5c18191c1f236	-1.3597427076011974
59	0xbfc15a0798479599	-0.13555998740700373
60	0xbf97e71c84f50bbb	-0.023342557540001013
61	0x3fd50b01906ab3fa	0.3287967596359632
62	0xbfe6da61b0cfd21c	-0.7141579106669869
63	0x3fbbbabb30e9a4f2	0.10831804222256716
64	0x3fc47c285a369682	0.16003899006789274
65	0xc008ced77f8fdfff	-3.1009969678671037
66	0x3fc0e3ba0375d364	0.1319496647735391
67	0x3ff1b9bb87fe188a	1.1078448593339396
68	0x3fd0ccda13bb1e45	0.26250316550110525
69	0x3fdcfddc65e8749f	0.45299444152790075
70	0x3f833976a3b1ee0d	0.0093869465547334
71	0xc0122d1a622d09ab	-4.544045957564246
72	0x3fc2f2af4aeceb34	0.14803115042180937
73	0x3fd041d7265a94e7	0.2540185808705488
74	0xc036ea87cd9c76e2	-22.91613469190532
75	0xc01e8800c87a6d1e	-7.632815487358384
76	0x3fc321fc557d4a55	0.14947466062820305
77	0x40344d8d078b8f7c	20.302933188984284
78	0xbff3819b823e618c	-1.2191424453395454
79	0x4030ed645a001471	16.92731249334287
80	0xbfa870479ff3d523	-0.04773162677330791
81	0x3f924f9e3572a326	0.017881843578524535
82	0xbfa7c1e24cad5287	-0.04640109239577322
83	0xbfa6d49b3d474b7b	-0.044590808134350866
84	0xbfa14cd63807194c	-0.03378934320385216
85	0x3f81ed39d549a381	0.008753253766558224
86	0x3fae3fdfda6c683f	0.059081073201199256
87	0x3f952e5fad44464f	0.02068471426998136
88	0xbf87f9f2324f9a1a	-0.011707203064315986
89	0xbf901f999a096ab6	-0.015745544459017956
90	0xbffffe77e54b1bd6	-1.9996260601781066
91	0x4006ea69994d94ce	2.8644592263031887
92	0xc016826f13fed3d9	-5.6273768543514615
93	0x3ff409e3b8b08fe5	1.2524144377175557
94	0x4034c32f425692a3	20.762439867149293
95	0xc00963291c6d83c6	-3.1734182568475005
96	0x3f914b1d826abadf	0.01688810451986
97	0x401fbcfc81ea1397	7.934556989585778
98	0xc009e1a02bb3265c	-3.2351687826201623
99	0xc029b0f7b8b098d2	-12.84563996463513
100	0x3feb89bd4f4ba787	0.8605639027348254
