10032016run/weights.npy (npy, 808 bytes, 1 tensors)

array f8 [91]
119.12185311269876 -0.03828267582645381 0.06765174749485618 0.013544799006728584 0.0008305247981008556 2.6882053867794524 -0.00812665173433665 1.8781758621407005
-41.95654482394242 -1.8748379925085914 785.1870568744954 -0.05643246230558757 -0.018571581805367776 -0.0574335328552163 7.222040931862378e-05 132.89165724930854
-0.001362018100584082 0.014081162942820235 -81.75049874311543 -0.01452299011419783 276.80524166426767 -0.07617763203081832 -0.04430938778442588 0.07787519321575076
0.003528716119064576 79.6250061166372 -0.03691347533220456 0.060815744617922475 33.463484049417836 -0.0616722384518881 220.56948798329097 -0.39788062068468477
0.1765926762898777 0.06829242048743896 0.001233670898111728 -138.46026945938368 -0.01210523827020803 -0.30899308936626757 190.95795330287925 0.31037997579345045
-996.294369318608 3.186487511946665 -0.1508044693937222 0.525880610631971 0.004000860489218227 8.209877700164096 -0.03658279727738859 0.2558469517831076
369.35028847405437 -0.25380183785234317 -379.6591215494838 0.3028131919892586 0.39463908172612344 -0.08521552197236192 0.0035689228206785724 -117.70509134330285
-0.04033903324632361 -0.3694223633525687 28.260922253116956 0.36996473376153916 -244.11221960673896 -0.20594891442702204 -3.6063289708937987 -0.038486680295194586
0.00012227901570900648 -63.770754650171845 -0.0019210544184761046 0.3333228958006339 272.2620492119849 -0.33799772264944816 -0.009193312843258247 -0.059478233829174144
396.25021539359716 0.6991204887717505 -458.05446693108684 0.008104350748287028 -41.8645020997415 14.525038068288362 -0.00810629033268096 14.4947318489571
-1089.8330514106112 0.33895252983984436 -10.716922412964768 -0.2513411301367602 -0.21737323824875346 127.10285314862573 -0.12947445239173216 -0.23782623274572562
-102.86212050367733 0.24131423647073907 561.3181985217368
00000000: 3f7d ff70 ccc7 5d40 5c21 5b71 c999 a3bf
00000010: d3f5 01fb 9f51 b13f 8f4b 1e26 60bd 8b3f
00000020: c287 556c f236 4b3f b330 69d3 7181 0540
00000030: 2a50 66bb b4a4 80bf 9f7e 0022 020d fe3f
00000040: d2fe 8f0f 70fa 44c0 8df6 711f 56ff fdbf
00000050: 99b3 ac17 7f89 8840 780c 1238 b7e4 acbf
00000060: c0c7 f4c1 6d04 93bf 6921 9d92 ed67 adbf
00000070: 85f9 3b2f a1ee 123f b0a0 c874 889c 6040
00000080: 5f59 b5cc b750 56bf 39ea a1b2 95d6 8c3f
00000090: ac57 e12b 0870 54c0 5f17 a5bc 3abe 8dbf
000000a0: 8056 1545 e24c 7140 8253 4296 6080 b3bf
000000b0: 6639 e156 b8af a6bf 4805 08f0 a0ef b33f
000000c0: f906 810a 41e8 6c3f 6eb0 a719 00e8 5340
000000d0: 4ec3 aab2 52e6 a2bf dd85 6ec4 3d23 af3f
000000e0: cf3b 0172 53bb 4040 74a6 71ee 8093 afbf
000000f0: 64f6 dc3e 3992 6b40 c062 6347 e076 d9bf
00000100: df66 b0bc 969a c63f 35e8 8eb0 9c7b b13f
00000110: 37a7 540a 6436 543f d16c 0487 ba4e 61c0
00000120: fabd d893 a1ca 88bf f428 61f3 8ac6 d3bf
00000130: c55e af8d a7de 6740 dc6e 57f9 43dd d33f
00000140: f022 4dde 5a22 8fc0 fe62 272a ed7d 0940
00000150: 657e 1194 8f4d c3bf 7379 0893 03d4 e03f
00000160: 8c14 50cf 3463 703f 9eba 0417 756b 2040
00000170: 351f cefb faba a2bf a324 ace4 cb5f d03f
00000180: ab43 16c8 9a15 7740 7f64 4f10 4a3e d0bf
00000190: f3b1 09c3 8bba 77c0 fe09 1995 4a61 d33f
000001a0: d12d 6f47 c441 d93f f79c fb37 afd0 b5bf
000001b0: 2814 7fd9 923c 6d3f 6c0b 7137 206d 5dc0
000001c0: a226 1759 51a7 a4bf f1a8 40b2 9da4 d7bf
000001d0: 9bef ffcc cb42 3c40 5277 0b90 80ad d73f
000001e0: 3e9d 924d 9783 6ec0 752d 0eb6 885c cabf
000001f0: 80d9 e400 c3d9 0cc0 b820 66b2 86b4 a3bf
00000200: 01ca 35bf 0007 203f 2fdd 9f16 a8e2 4fc0
00000210: b81d ad79 7c79 5fbf f630 1e8e 2955 d53f
00000220: afb6 835a 3104 7140 0cb8 3933 c1a1 d5bf
00000230: 1e8f 0790 f1d3 82bf 7d83 3d5a ee73 aebf
00000240: 4a47 dbe1 00c4 7840 5d9f 67ee 315f e63f
00000250: b47b b718 dfa0 7cc0 a188 5a8b 0399 803f
00000260: 46db 3a01 a8ee 44c0 35e8 28ca d10c 2d40
00000270: 8349 f7de 079a 80bf e71e 2f7e 4dfd 2c40
00000280: d9d1 6d0b 5507 91c0 08c0 a3f3 65b1 d53f
00000290: fbe7 5a74 106f 25c0 a2ee 841b f915 d0bf
000002a0: e1e9 a6e2 e2d2 cbbf d768 5f25 95c6 5f40
000002b0: e051 586d 9e92 c0bf 160b e309 1771 cebf
000002c0: 5520 7afb 2cb7 59c0 82bb d988 62e3 ce3f
000002d0: f6a3 aaab 8b8a 8140
