12012016run2011data/18levelData/nami/weights.npy (npy, 488 bytes, 1 tensors)

array f8 [51]
0.09866350637832413 -0.06895626446767748 0.048328501871591496 0.04284740589732564 -0.0008711397014076594 0.21416605017403045 -0.9529270396692457 -0.3317911296310071
-0.30043669350648794 1.1758423483017733 -0.30517135951995983 -0.061383365776337975 -0.04884286778995574 -0.07102815250061179 0.5967063971824375 0.24484412440224718
-0.3861541100890479 -0.0442782323890342 -0.02573155034934254 -0.3001070012852957 -1.7027936744322667 0.4152493997647238 2.243639480754216 2.1799741065778777
0.9340529767338669 0.33131112736803087 0.1671102053394814 0.5298366239924776 0.48748657071421464 0.4777025740362149 -0.08983965857635393 0.08767168964777927
-0.0760794188598256 -0.06891636733801237 -0.030606559496320566 -0.12559076641071115 -0.0053263609669601895 1.4426222854080304 1.4711805304526349 -0.1407187521161336
0.04173694038443492 0.055029729986689736 -0.5980690390677491 0.622729479398304 0.027424234042083655 -1.0404210215050274 0.24768056563941943 -1.6180355927154582
-1.6425742113959036 1.6413146095439302 0.6362636119161413
00000000: 721e 34f5 0242 b93f 5b35 be24 1ea7 b1bf
00000010: 399e 016e 83be a83f 854b 185e 18f0 a53f
00000020: 71b9 8e43 a68b 4cbf 349a b40a cb69 cb3f
00000030: ea4f dbd8 607e eebf 7e8e b7dc 103c d5bf
00000040: 4c3d 48d3 5a3a d3bf cb53 f310 40d0 f23f
00000050: fb19 3474 ed87 d3bf d238 0ef9 a36d afbf
00000060: e2f6 99af ee01 a9bf a0de 15a8 e62e b2bf
00000070: 41cd a603 3818 e33f be73 7661 0d57 cf3f
00000080: b619 83ba bfb6 d8bf d538 12f0 a2ab a6bf
00000090: 0e39 e71c 5f59 9abf db8a f4fe f334 d3bf
000000a0: 2a5b 7894 a43e fbbf 6114 eb37 7293 da3f
000000b0: 8ad4 8e41 f9f2 0140 ca07 af43 9670 0140
000000c0: 83b5 7911 c3e3 ed3f 6b2e 3696 3334 d53f
000000d0: bc65 6101 de63 c53f e7a9 88ef 6bf4 e03f
000000e0: 483b 9ddf fa32 df3f 01d6 2cd1 ad92 de3f
000000f0: 8220 785b bbff b6bf 8880 d2df a671 b63f
00000100: a7d1 e6d7 f079 b3bf 0c3a e0c7 80a4 b1bf
00000110: 8eb0 5170 5357 9fbf 2ef0 34b5 5b13 c0bf
00000120: aa7a 8e22 18d1 75bf abee 041b fb14 f73f
00000130: 5fe5 8c98 f489 f73f a4e8 2273 1203 c2bf
00000140: b7f5 f853 8b5e a53f 5d7a 3355 db2c ac3f
00000150: e379 71ae 6123 e3bf 92aa 885f 66ed e33f
00000160: 4e7c 5031 1915 9c3f c8f5 5683 90a5 f0bf
00000170: d856 a32c ffb3 cf3f 41a1 274a 79e3 f9bf
00000180: a22c 73e5 fb47 fabf d302 a71b d342 fa3f
00000190: b811 9a81 455c e43f
