10032016run/binaryData/weights.npy (npy, 888 bytes, 1 tensors)

array f8 [101]
0.07989356428685222 0.039681136014187345 -0.0816108130743403 0.026784665712502147 0.18039937853437704 -0.04134442760345411 0.1291935630534638 0.031755177737805784
0.024836723209331165 -0.12583031581532123 0.4299809691960837 -0.6638868955292335 -0.4515024410514773 0.5416900518234784 0.80645287217904 0.6580290770940058
-0.44509395732830254 0.7516382856604659 0.5311381892554549 -0.6468959727815818 0.6803881351158483 -0.8017003513942021 -0.694313088679491 0.1574742187114982
0.13621490529002406 0.830327749955219 0.7017058036485629 0.12454449818125748 0.14777387886516788 -0.23951163382136062 -0.39889445540363044 -0.41368813107300123
0.39649339002012923 0.3028877919690373 -3.762306549484311 0.42666547497298063 -2.1306143664676807 0.19364433563817418 0.3011055055925336 0.2729744758762478
0.607271094050912 0.3731253769029794 -0.5826245048925169 -1.850081463785699 -2.7406779686989498 -0.4292631445013918 6.839133601815985 -0.18202617972373328
-1.7964746371501745 1.3788146186497825 0.4309583162754266 -0.13281337409509494 -0.43883375520393336 -0.5283683731177384 -1.5102327665346915 0.1385702729809864
-0.9116991219636548 -0.31717512871906445 -0.5233363466318567 -0.22546192179314084 -0.12059043195540302 -0.07365946157602012 0.12132332325187935 -0.021078036633442498
-0.2554815864718728 0.07641982596135108 -0.3646489322430098 -0.06697016735846013 -0.01922810825918005 0.29296060196502605 -0.49447478411555934 -1.1856313663949019
0.4904012940051386 -1.4875536962373022 3.168513426102138 1.1980914209761822 -0.5937717599062163 0.21923725267549077 -1.4126505100892448 -0.288869242919203
1.1848141760716442 -1.292749424672351 1.1782785391995176 -2.495599998005724 0.022404322377511467 -1.2660968174788247 -0.026127270262634783 -0.1123005546963192
2.544052482311375 -0.055287823211972384 -0.6298083091831258 0.5520469176786662 0.6823468924116578 2.2018727304939425 5.122914924747808 -0.6110515607357079
2.6421481834962135 -0.0730641261086831 2.142247497429474 2.4259615994741814 0.7705808509847704
00000000: 07dd c595 e773 b43f 83eb e5fa 1551 a43f
00000010: a37d 273d 72e4 b4bf fef4 137d 706d 9b3f
00000020: 4c0e 83ab 5317 c73f 4c7b dbc8 182b a5bf
00000030: 328c 1528 6a89 c03f 409f b9f3 3642 a03f
00000040: ff0d b247 cc6e 993f 04d6 a231 351b c0bf
00000050: 3d5f 26e6 ce84 db3f 1750 11bb 8f3e e5bf
00000060: 3a56 987e 6ae5 dcbf f4cf 2460 8655 e13f
00000070: 9ec6 f840 76ce e93f 38f2 bdfe 920e e53f
00000080: 6bd3 975d 6b7c dcbf a1a9 eabb 6b0d e83f
00000090: 6548 1084 15ff e03f 1d5a e02e 5fb3 e4bf
000000a0: 8216 9d56 bdc5 e53f f9c0 cd7e 87a7 e9bf
000000b0: 6c05 2215 d037 e6bf da1d aa7d 1d28 c43f
000000c0: de64 b971 7d6f c13f 159b 6080 0b92 ea3f
000000d0: edaf c2ba 5f74 e63f cad1 95f2 25e2 bf3f
000000e0: 37e8 7624 41ea c23f 531b 2335 51a8 cebf
000000f0: acea 209c 7c87 d9bf f5eb 6cc8 dd79 dabf
00000100: 3bdd cdcf 2560 d93f b356 377a 8362 d33f
00000110: 687e 1c2d 3419 0ec0 2dd7 55b5 7c4e db3f
00000120: 7cee 828b 7f0b 01c0 c490 4f6c 56c9 c83f
00000130: 2c97 ca06 5045 d33f 98ff a1ef 6978 d13f
00000140: 6127 18ca c36e e33f 38c8 c642 49e1 d73f
00000150: d691 4b25 dca4 e2bf 8053 5e05 ef99 fdbf
00000160: 0770 2392 e8ec 05c0 0ebe c01f 0c79 dbbf
00000170: ed18 c3d6 455b 1b40 c1f1 7644 a24c c7bf
00000180: 9974 6a30 5cbe fcbf 798f e5ea 9f0f f63f
00000190: 4ee6 9530 d294 db3f 3fdc 1a55 0700 c1bf
000001a0: 37d5 be2c da15 dcbf 5401 59ca 64e8 e0bf
000001b0: 5ed3 59d5 e929 f8bf 3258 53b3 abbc c13f
000001c0: a806 14a3 a32c edbf 7ffd 3ce9 984c d4bf
000001d0: 35f1 b2dd 2bbf e0bf 0824 4cae efdb ccbf
000001e0: 037f 75b9 03df bebf b98d 82b2 58db b2bf
000001f0: 21de 9b99 0b0f bf3f 53a2 0418 7b95 95bf
00000200: f61e a870 cf59 d0bf ae1f 45ed 3f90 b33f
00000210: b152 a079 6856 d7bf 4dbb 9cf6 f424 b1bf
00000220: b56a 8c80 88b0 93bf 5e33 1dd3 ddbf d23f
00000230: 6e45 9e90 79a5 dfbf 4472 7c98 58f8 f2bf
00000240: fdc2 ea1b bc62 df3f 4e21 c61a 05cd f7bf
00000250: 615d 3091 1d59 0940 ba5f ebe8 612b f33f
00000260: efbc 42a2 2d00 e3bf fc2e 275f f70f cc3f
00000270: 282d d86b 379a f6bf e020 ca6b d57c d2bf
00000280: d209 a1b5 fff4 f23f bf3f 4e05 1aaf f4bf
00000290: a00c f798 3ada f23f 73a8 ba21 fdf6 03c0
000002a0: 4710 9a9f 28f1 963f 7e42 8abc ee41 f4bf
000002b0: 9040 3f6d 1bc1 9abf 324c bea9 babf bcbf
000002c0: 07ae 1630 385a 0440 96f9 1f81 af4e acbf
000002d0: 3f19 56c1 6327 e4bf 0033 294c 5eaa e13f
000002e0: fced 6d26 c9d5 e53f d867 3b73 6f9d 0140
000002f0: b5ed f768 dd7d 1440 acf2 b000 bc8d e3bf
00000300: 966a 3a96 1e23 0540 02ca 25a0 54b4 b2bf
00000310: f22d eba7 5223 0140 68bf 188e 5e68 0340
00000320: f7e8 3c2c 99a8 e83f
