10032016run/binaryData/weights.npy (npy, 888 bytes, 1 tensors)

array f8 [101]
0	0xbf922587389b5046	-0.017721283750532522
1	0x40363f8e5a5c44ee	22.248265883948015
2	0x3fa3cad890a37f26	0.038656966835104264
3	0xbfa9841219ef05e8	-0.04983574453900613
4	0xbfa3cac406b45378	-0.03865635473099521
5	0x3fa9837e5c412841	0.04983134151605429
6	0x3fcbb07e61865b34	0.21632365953402088
7	0x4063165f0cbed5c9	152.69910275719147
8	0x3f8cd4959cd29be7	0.014077347610806213
9	0x405943f00a1d9aa1	101.06152584925668
10	0xbfc90f2e66034d89	-0.19577579480265353
11	0x40977152481ca1b1	1500.3303532098473
12	0xbfebed4b03320033	-0.8727164328011042
13	0xbfe267f855cd54a7	-0.5751916576215493
14	0x3febece4e9b57cad	0.8726677479388819
15	0x3fe267d1cfa98ee1	0.575173287954808
16	0xbfebae13432b5a5b	-0.8649994193936651
17	0xc091f5d17f1dad1a	-1149.4545864712622
18	0xbfe00ecd76218911	-0.5018069560285615
19	0x4080b906365ce86b	535.1280333765438
20	0x3fb38bed73949620	0.07635387489116185
21	0xc06579f746387f3a	-171.8114348510224
22	0xbfdc2e07ff9c0140	-0.4403095241723527
23	0xbfe38c4a6724dd3b	-0.6108753218203796
24	0x3fdc2d68e7444478	0.44027159294734686
25	0x3fe38c99d5a7c44e	0.6109131977992861
26	0xc008c46f91e5c3a2	-3.095915927719447
27	0x408d8dc5dfd246cc	945.7216183116775
28	0x3f97df3b6fbbce28	0.023312500662497154
29	0x40766cbabdcb62c2	358.79559115836685
30	0xbfc8f96597a5c7ba	-0.1951109877077764
31	0x4060558a954d1dcd	130.67316689550208
32	0xbfe69d06ffecd11c	-0.7066683767830315
33	0x3fc7fceed32d9f47	0.18740639983593096
34	0x3fe69c88e59eb554	0.7066082463040098
35	0xbfc7fe111ae8ed6f	-0.18744100393255844
36	0x3fce0c06e18e6adc	0.23474203122608273
37	0xc09d0555181cfbae	-1857.3330997971166
38	0xbfd2af61bf0ee758	-0.2919544568827539
39	0x4064cb20966446c5	166.34772796235316
40	0x3ffeb79fa3b59dad	1.9198299784564867
41	0xc0a42b9f3fe353c7	-2581.8110343017356
42	0x3fc2d075e28a6c75	0.14698670922811954
43	0x3feed6e96beb65f9	0.9637343509486406
44	0xbfc2d1bca95c50d5	-0.14702566403923947
45	0xbfeed679ba29048e	-0.963681090921584
46	0x400643cf3604ef70	2.7831100673919806
47	0xc0a3d7707aa25957	-2539.7196856245096
48	0x3fee6f1d54be1302	0.9510637908102526
49	0x408905ce413b8227	800.7257103585333
50	0x3fb6b7835d79f16a	0.08873768837105947
51	0xc09807f67e8739f7	-1537.9907170418862
52	0x3fdecb6a961fc34a	0.4811655489020735
53	0xbfe2aeeaf50f4221	-0.5838522707291
54	0xbfdecaf1c0f08088	-0.48113674012893926
55	0x3fe2af22a12605c6	0.5838788173133984
56	0x3f89cb11ad150016	0.012594354719681216
57	0x40723f34c6cf03b7	291.9503849112038
58	0x3fb0dedad9313439	0.06590049555343648
59	0x40728b29367e5c9a	296.6975617347722
60	0xbf88a4d3aebb8c12	-0.012033132333675343
61	0x404ea7822973bda9	61.30865972663316
62	0xbfa6912138211dff	-0.04407600221798801
63	0x3f8f014b21b734ec	0.01513918587343218
64	0x3fa69188f959e1b1	0.044079094351164534
65	0xbf8eff6a4ae11c4e	-0.015135603342186024
66	0xbfdae1c3ca8f675d	-0.4200295904280347
67	0xc0798cba5638adde	-408.79549238338757
68	0xbfabf7c315ff5c88	-0.05462464946293105
69	0xc064b977c28a8d27	-165.79586913166824
70	0x4002b845904350e0	2.339976431898421
71	0xc08fa7154f195b6f	-1012.8854047757176
72	0x3fc015cb63e10800	0.1256651151362007
73	0x3fdfeee6b9fb290a	0.49895637666908554
74	0xbfc015de48c14b4c	-0.12566736748211793
75	0xbfdfeed01192f717	-0.49895097461909316
76	0xc00e0a0900a49f99	-3.7548999834288677
77	0x409c73b4c074a26b	1820.9265154098637
78	0x3fe4b13c5621b7c9	0.6466352159748051
79	0xc02f9008f212baa2	-15.781318249498614
80	0x3fb04d5a4cf472e4	0.06368030909329608
81	0x3f99658d68ac993d	0.024801454080397568
82	0xc0903717c96f493f	-1037.7732293499428
83	0x4086bf2bb62b3984	727.8963435532501
84	0xc0903790ea01c0db	-1037.891517665287
85	0x4086beef277806e6	727.8667744996171
86	0xbf9b054286c93859	-0.026387252308545637
87	0x3f8b34aac2ce47bc	0.01328404814720218
88	0xbfc4158fe2549557	-0.15690802146233793
89	0xbf8922fe02b49587	-0.012273773629724939
90	0xbfffa19b0abbcac2	-1.9769545001296795
91	0x40b3f0cc2edbd817	5104.797590008026
92	0xbfd58a1b85964135	-0.33655441327666163
93	0xbff5db614711faf1	-1.3660595680409495
94	0x3fd5894f09dd2734	0.3365056606604526
95	0x3ff5dbb24abc1e3b	1.3661368293122809
96	0xc0100c1ad0457a75	-4.011821035614607
97	0xc0a484b465a83181	-2626.352338081401
98	0xbfd0f3ea14a0b131	-0.2648873521273059
99	0xc092a6f04ac8142e	-1193.7346602690045
100	0x3fe9306a6f79a314	0.7871601273774069
