10032016run/binaryData/weights.npy (npy, 808 bytes, 1 tensors)

array f8 [91]
00000000: 63bd 34fe 770c df3f fac0 0046 434d 99bf
00000010: f3dc fc02 2c15 b0bf d44a 8b41 e2bc 25c0
00000020: 063b 24bf b0f8 c2bf b223 4529 b4ad 73bf
00000030: 2fae 0f74 a849 953f e13a bb8d 0a6a 91bf
00000040: d239 c1cc 820d 98bf 75a6 fe0b 3d6b 8d3f
00000050: 4677 4066 7cad 0040 fb6d ebb5 d247 c3bf
00000060: 656a f7a9 08b8 0040 f97a 04dd eec2 6440
00000070: 0808 b0b4 c447 05c0 19a1 2c4d 3509 823f
00000080: 2f14 30c2 7971 c33f ee10 18d7 81d0 c2bf
00000090: f03f 8e5e 9f92 c3bf 74bb c0bf cc2e c23f
000000a0: 5502 9ab1 c3f1 ff3f afcf 24bf ffa8 c4bf
000000b0: f311 272c e2bd ddbf 4fe4 1c3c 0ad8 5740
000000c0: c9da 744c e4c9 debf 135a a6f1 e5c3 cb3f
000000d0: c807 40f1 b527 c43f 3ff4 30ff bf22 c4bf
000000e0: 9149 447f b46e c4bf d2f7 1adc ab62 c43f
000000f0: 8e20 d12b a9cc 1340 2b11 3542 f4e3 ac3f
00000100: 2eee 2b81 a931 e13f 36ef 4c9d 19ff 64c0
00000110: 2d0f 3fb2 e3ed fc3f 5af5 50c2 6912 94bf
00000120: 38e1 3605 cb09 abbf 7b08 1d8e c5af a53f
00000130: f31e 3a3e 9d6a ad3f a77a 45b7 0750 a1bf
00000140: 865a 8b48 2beb 1440 49cf 817a 11f4 f43f
00000150: b7b5 33b6 d4f5 883f cbb3 89d3 a41d 6b40
00000160: 79a9 3e31 145e 02c0 f065 d3ff 36c6 d0bf
00000170: 01db 016b 9663 f1bf 6a7c 406d 7907 ef3f
00000180: d699 5910 0151 f33f f243 3b8c 4ddd ecbf
00000190: ebe9 6bec d433 d83f 6260 17e4 9d6f 96bf
000001a0: af86 3338 c19f ccbf cc1d 3308 bec0 7840
000001b0: 60a0 cd80 d9c2 0040 a471 7825 993b 983f
000001c0: 9fd7 214e 3eda 61bf 58e3 2ec4 74dc 7e3f
000001d0: 49eb db34 694f 80bf 032f 8a57 9418 83bf
000001e0: c443 3555 db5c d2bf acff 8521 2259 9dbf
000001f0: 1792 6ffb 01e1 c0bf b8f8 97d4 0c39 3c40
00000200: 0715 4d38 d431 d73f c8fb ea10 8b97 68bf
00000210: f217 594b 15ce a03f d7b0 d6f7 db82 a2bf
00000220: 9081 5841 4bd4 9ebf 153d fe74 7989 a33f
00000230: 8239 4455 0813 96bf 4f78 e923 d12e 5f40
00000240: 25ee 3779 bd4c a1bf 9ae6 6083 02d1 8dbf
00000250: 791f c175 3e8c 963f 068b 31d5 7d91 7340
00000260: 6fce b356 0658 85c0 8a52 81d3 09a8 83c0
00000270: 8937 add9 ee91 7bc0 15e0 bc51 146d 70c0
00000280: c392 d315 ab4a 18c0 4ad1 3db3 b018 e4bf
00000290: f7af 7a2b 28bb c73f 3151 48e4 21c6 7dc0
000002a0: d198 e809 86c4 1240 f8d8 6000 03cc 1640
000002b0: c542 7e0c 7c52 e33f 8bf9 c176 a63c e3bf
000002c0: d24b 1ef7 519e e3bf d8b0 9eac ce41 e33f
000002d0: 423a 69ff d5bc 80c0
0.4851360304337133 -0.024708796641960774 -0.06282305787032154 -10.868913696530775 -0.14821442921716982 -0.004804328684550651 0.02078879555112517 -0.01700607767161955
-0.023489040133705626 0.014364697388219863 2.0847099293158946 -0.15062936671061763 2.089860275137925 166.0916581237323 -2.660043155309726 0.008806625764535657
0.1519005010779053 -0.14698813440930486 -0.15291206471420038 0.14205321658070214 1.9965245187342096 -0.16140744050210062 -0.4647145682504565 95.37562468358486
-0.4810724970479155 0.21691583918864463 0.15746187476912454 -0.15731048546322943 -0.15962845052906663 0.15926120993930099 4.949864086760625 0.056426652032799694
0.5373122713930962 -167.97187676454786 1.8080784762141306 -0.01960149048340063 -0.05280909002925899 0.04235665664465756 0.057454027029107645 -0.03381370651435605
5.229657300477475 1.3095869813377752 0.01218763524090148 216.92637040038093 -2.29593695137481 -0.26209807379709016 -1.0868133716555237 0.9696623929811612
1.2072764052078262 -0.9020145167252152 0.37816355789223505 -0.021910159155453697 -0.22362532848551583 396.04639453856794 2.0951414168121545 0.02366484919740376
-0.0021792618654740826 0.007534462088124659 -0.007963964391355953 -0.009324225350858755 -0.28691752740001797 -0.028660329147441807 -0.13186669137134352 28.222852027037078
0.3624163198295069 -0.00300194894165837 0.03282228989387183 -0.03615462684987996 -0.030106712211023956 0.038158221751581824 -0.02155697842050009 124.73151490974236
-0.03378860573499435 -0.01455881083903714 0.022019363343388918 313.0932208953167 -683.0030950591444 -629.0047979453386 -441.12081306136 -262.817460763735
-6.072918263471993 -0.6280139447031072 0.1853990757275594 -476.38327434777153 4.691917567082968 5.699230199729065 0.6038189167030273 -0.6011535949217416
-0.6130761934786 0.601783120296683 -535.6044910641579
