10032016run/binaryData/weights.npy (npy, 808 bytes, 1 tensors)

array f8 [91]
000000 f6 db 5e d0 86 c0 59 c0 b9 74 0f c1 71 9f c8 bf
       -103.00822839034649 -0.1923658554723369
000010 57 3c 9e d8 c8 91 92 bf f6 be c3 8d 07 7c 92 3f
       -0.018134248944587785 0.01805126002085352
000020 9b 02 e2 21 84 43 58 c0 ce 74 3f 6b 49 92 7b bf
       -97.05493971892649 -0.006731306832049101
000030 98 3d 1c bb 25 eb a3 bf 07 6f 9e dd 45 da b8 bf
       -0.038903407183279615 -0.09708058033578136
000040 7c 90 e1 e3 b2 ad 84 40 55 26 9e 04 ec e8 a3 3f
       661.7123487112253 0.038886428416912956
000050 7e 09 4c 56 2b 5f b1 c0 9e 6f 79 d2 63 39 ae 3f
       -4447.169285538022 0.05903160042063792
000060 41 fc 03 b9 5d 8c d1 bf 93 b1 dc a5 29 8a d1 3f
       -0.27419226711203143 0.2740577811953468
000070 2e 99 39 a2 9a 2a 7e c0 29 4e fb 5b e9 79 f0 3f
       -482.66275236605986 1.0297635643991134
000080 40 f1 f3 eb 63 0f db bf f2 e8 aa 1e 76 16 d3 3f
       -0.4228143505313433 0.29824593539127797
000090 e1 50 b9 2c 73 bb 30 40 9f 85 e2 89 1c 0f db 3f
       16.732226176493786 0.42279733147923965
0000a0 51 d5 2a 84 bc 29 76 c0 bc 67 fb 40 8e 61 c6 3f
       -354.6085244820761 0.17485216305686702
0000b0 46 cf 37 21 65 14 de 3f 3c 28 af b3 94 20 de bf
       0.4699948143381686 -0.47073857829366594
0000c0 93 72 1e 6e e7 35 84 c0 8c bf 79 82 e9 f8 a0 bf
       -646.7380030039516 -0.033149048974222856
0000d0 92 d2 c4 4a c3 cd d8 bf 05 84 47 5a 60 a3 e8 bf
       -0.38755876828808156 -0.7699434054630961
0000e0 19 70 77 54 d0 7d 91 c0 58 b7 d7 22 7c cd d8 3f
       -1119.4534472143334 0.38754180338479705
0000f0 4e e7 de c2 a9 03 2e c0 1a 56 55 a4 e5 9c f6 3f
       -15.007154550275711 1.413304941107873
000100 ba 1f ae ae a2 78 8c 3f ad 5d eb 73 21 5a 8d bf
       0.0139019689138563 -0.014332066869811333
000110 7c a6 55 a8 78 a2 91 c0 6a 60 57 e0 3a 98 d3 3f
       -1128.61782964543 0.3061663809617189
000120 1e 9d fb f1 bc f4 d8 3f 4a aa 58 2b d8 ec b5 bf
       0.389937626181977 -0.08564520891437968
000130 a5 47 c4 f4 15 65 65 40 8c 49 be 85 29 f4 d8 bf
       171.15893019042883 -0.3899024778449067
000140 73 26 bc 47 6f 7d b7 c0 ca 1e a1 a3 d7 8a 12 c0
       -6013.434688338649 -4.635588223179818
000150 da 8c 57 c8 2a 11 f8 3f bc 80 cd fd df 0e f8 bf
       1.5041911912783719 -1.5036315836114644
000160 2c 23 6c 95 e6 b8 80 c0 09 4c 41 93 af d0 c6 bf
       -535.1125896881326 -0.1782435864466552
000170 ac 72 a3 b6 f1 24 e7 3f d6 98 d2 a8 29 4b d9 bf
       0.7232597891957844 -0.3952125691088332
000180 01 3a 6e 5c 13 0b 73 40 f3 19 0e 5f 24 24 e7 bf
       304.6922268205381 -0.7231618744415854
000190 50 49 2a 57 13 cd a4 40 71 0c 57 52 d8 44 fa 3f
       2662.5377743925565 1.641807862892872
0001a0 90 0a e3 ef 09 a1 b5 3f 96 27 a1 53 58 af b5 bf
       0.08448850733388213 -0.08470680276619044
0001b0 bd 59 82 a1 7b e3 74 40 9f 9f 99 18 0f 39 d4 bf
       334.21768332403354 -0.3159826030955574
0001c0 88 ac c5 b9 f0 dc d5 bf 00 c5 0a 71 a2 f0 d3 bf
       -0.3416101278477943 -0.3115621665884447
0001d0 a4 d3 82 97 1a 60 72 40 c7 d4 11 1c aa dc d5 3f
       294.0064921484393 0.34159329167534874
0001e0 5f 2e d6 e6 6a 2e 63 40 f6 88 8a 7e 8a 94 e0 3f
       153.45054952461484 0.5181324454790956
0001f0 05 e4 29 f4 f0 c7 a1 bf cc d3 22 db 83 cd a1 3f
       -0.03472855549348001 0.034771080493932155
000200 b3 4b 5a 82 06 53 6f 40 ad a3 26 0d 0e 4d 97 3f
       250.5945445788944 0.022754878571195004
000210 aa d9 8f 04 c8 24 a3 3f 29 5d 64 ca 2f 8a c0 3f
       0.03738999419867935 0.1292171228639998
000220 da 40 54 94 0a 0a 93 c0 34 9a f7 3f 9d 21 a3 bf
       -1218.5103314556677 -0.03736583143090791
000230 95 bb ac 4f c0 a7 93 3f 18 b8 61 77 a0 33 9c bf
       0.019194607603988684 -0.027540690695268294
000240 a6 f4 f1 aa eb bc 56 c0 70 ba ee 58 ce bb 56 c0
       -90.95188401821596 -90.93446944535549
000250 fc 77 a9 b7 80 b8 8e 3f e6 16 d3 7d fc 6f b5 bf
       0.01500034866802124 -0.08374002525223609
000260 43 75 b9 27 1e 54 8f 40 24 32 9e d8 52 71 bd 3f
       1002.5147242058669 0.11501043118023141
000270 31 f3 f7 c8 53 56 7a 3f 36 24 02 3b c9 54 8f 40
       0.006429984364783079 1002.5982570807744
000280 8c e8 be 59 68 c8 c1 40 03 d7 9d 85 69 b4 05 40
       9104.815238822506 2.71309189212741
000290 9e 7b 23 ed 57 6e d8 bf 0c 4c 5e 43 5f 76 d8 3f
       -0.381734830456418 0.38222486094417785
0002a0 a6 b2 3d de fb e9 9d 40 3e 51 33 36 f4 75 bc 3f
       1914.4959649696625 0.11117483447316531
0002b0 4e a1 6f b8 66 23 e8 bf b2 1e 80 81 2c 23 f4 3f
       -0.75432144186656 1.2585873659717604
0002c0 18 b3 2a 09 fc fb 74 c0 1f 4d b1 59 a4 23 e8 3f
       -335.7490321796372 0.7543508292969
0002d0 c8 db 08 2a 1c 3d e4 3f
       0.6324597187984802
