10212016run/6yrdata/weights.npy (npy, 888 bytes, 1 tensors)

array f8 [101]
0.026656705589093638 0.020760307261229023 0.024122484543819826 -0.05144224384254536 0.0485849850015286 -0.28523740334865516 -0.04434161126126488 -0.0022283453970265107
0.1419795094346318 -0.03249477668232613 0.10692113920519762 2.1686651608352983 -0.20060426393508854 0.0819040952580991 -0.1455533782610795 -0.4930088356375028
-0.031896807103424095 -0.1806746228740166 0.7355682611777181 0.11156301036674217 0.11475170742802042 0.06362166420690968 0.09242793705644924 -0.06841375381271567
-0.30112905624317066 -1.1558263195151472 0.1462096643162693 0.01164819293105158 -0.683359001476583 -0.03877828955882729 -0.00460819600478782 0.7762137259321639
-0.10899215151781677 0.11910157516909639 -0.035898580533130164 -0.22373604790527374 0.01872688980643111 -0.035134694356045174 -0.10966082863876671 0.0922386379963689
0.7223591923136887 -0.29901807884203896 0.5266637975832431 -0.32760787202345937 2.3089954951671214 1.195451805815087 -1.899878890906559 0.020321321747159924
2.7141461466997954 -0.4155817788097872 0.12061598108746939 -0.21658183945506598 0.16744281408271836 -0.07165966213838133 0.15830808471260005 -0.849731656755216
-0.12453585929718738 -0.1347624356215178 0.005641310563106614 -0.09290822734843845 -0.07380491032454269 -0.034890880437684256 -0.061680408030942116 0.05661545624650472
-0.13144085558151533 0.17947226888860357 0.12029823860890758 -0.0163751531376758 -0.19793545259254913 0.041692121558622786 -0.2137939516224318 -0.573996257863016
0.8017784631182597 -1.9458315157660004 -0.685516281190543 1.2949945563783885 0.3769660889555625 -0.013200571821302926 0.25176953431569066 -1.5638582785091766
-1.2247959635815653 -0.026725271364416315 0.3537810535132606 -0.5952836656406431 -0.4486000063579617 0.017137198825545614 -0.8680099856576352 -0.2556897456255379
-0.11019626079101211 0.911608714545087 -2.3817556320365996 0.3160483559830587 1.1880989259995907 -1.1723801382326504 -3.0427135460281636 -0.12958309735480708
2.581569333565469 -0.6316416428675158 -3.6078160534701347 -1.1440469467865375 -0.9211741186479162
00000000: c8a3 e53a e54b 9b3f 02b2 f7a2 3042 953f
00000010: 611b db88 90b3 983f af88 df45 a356 aabf
00000020: ab01 5193 21e0 a83f ad9e be61 5441 d2bf
00000030: fd2a 7094 f1b3 a6bf b56a 57d3 2d41 62bf
00000040: ada7 dc72 622c c23f 6e67 48c6 27a3 a0bf
00000050: cf2b 230c 2f5f bb3f f518 ae1e 6d59 0140
00000060: ab09 8588 66ad c9bf cbc0 8ab2 aaf7 b43f
00000070: 5411 ba3b 7ea1 c2bf 6fef 6cee 748d dfbf
00000080: 2b49 b63e c754 a0bf 3003 3b96 5820 c7bf
00000090: fe7b 3773 c689 e73f 6ded f7b8 648f bc3f
000000a0: 0f42 902e 5e60 bd3f 14f5 1567 8249 b03f
000000b0: 07ea e476 5ba9 b73f b2e2 3853 9083 b1bf
000000c0: 1225 1cce b245 d3bf 15c7 22bd 437e f2bf
000000d0: 5e7b 4c8f ffb6 c23f c527 92fd 01db 873f
000000e0: cb9c 58b2 13de e5bf f963 e67a bfda a3bf
000000f0: a25c 2532 0be0 72bf ebb7 f22a bed6 e83f
00000100: c429 4ade e8e6 bbbf dadb 40da 707d be3f
00000110: d8a8 b97a 4c61 a2bf 923f 5800 62a3 ccbf
00000120: df00 194d 242d 933f aaa7 6db6 2cfd a1bf
00000130: 19e0 a768 bb12 bcbf 913a 9f8d f39c b73f
00000140: fa78 5e06 911d e73f 0184 62b9 1c23 d3bf
00000150: 206e 5309 6eda e03f b32f 1002 87f7 d4bf
00000160: 39d5 52a1 d278 0240 14b8 9e12 9220 f33f
00000170: eade 6c68 e765 febf 591e 43d1 1ccf 943f
00000180: cd1e 4541 92b6 0540 764c 3351 e498 dabf
00000190: 5f48 255e b0e0 be3f defa ae26 f4b8 cbbf
000001a0: edbd 3721 c46e c53f 5da6 53a1 4958 b2bf
000001b0: d439 4477 7043 c43f 3277 8471 0031 ebbf
000001c0: 5a55 dc02 95e1 bfbf 00a3 dc3e e53f c1bf
000001d0: 3180 00c6 571b 773f 0caa fd65 d5c8 b7bf
000001e0: b5cc 20ec e0e4 b2bf eb26 d1ac 37dd a1bf
000001f0: 62fa 970e 9394 afbf 29c0 0d7a b3fc ac3f
00000200: dd59 0ad0 0dd3 c0bf 242e b582 f2f8 c63f
00000210: 3377 9788 ddcb be3f e3f2 c5ec a5c4 90bf
00000220: 764e cdeb f255 c9bf 60b6 3075 ab58 a53f
00000230: 8e85 26a7 995d cbbf 8489 7166 2d5e e2bf
00000240: b75c b74e 2ba8 e93f 77db 3b3a 2022 ffbf
00000250: 73d8 12d7 bfef e5bf 934a 4236 4cb8 f43f
00000260: 82f8 f05f 3620 d83f aa84 16c2 e608 8bbf
00000270: 6ff6 00f7 fd1c d03f 9169 1c42 9005 f9bf
00000280: a9b0 fda6 c398 f3bf 2d94 f299 de5d 9bbf
00000290: 182b b249 59a4 d63f 3ea0 7854 900c e3bf
000002a0: dabd 12cd dcb5 dcbf 55c9 00f2 698c 913f
000002b0: f707 a0e0 bcc6 ebbf 7697 d885 385d d0bf
000002c0: 8227 3d78 d235 bcbf 2d08 f709 e62b ed3f
000002d0: bd49 95e5 d50d 03c0 24b7 39e2 223a d43f
000002e0: a34b f904 7402 f33f ef06 03ad 11c2 f2bf
000002f0: 174c 1a33 7a57 08c0 7f6b a0ce 2d96 c0bf
00000300: 6129 a0d2 0da7 0440 d00b dd88 6836 e4bf
00000310: a81a bda9 cedc 0cc0 dc96 d82b 044e f2bf
00000320: 2976 3025 427a edbf
